Navigation/checkpoint.pth (torch_old, 28333 bytes, 6 tensors)

fc1.weight f4 [64, 37]
000000 ae 1e b3 bc 27 b2 91 3d c0 23 c0 bd 38 42 a1 be
       -0.021865215 0.07114058 -0.09381819 -0.31495833
000010 e7 14 fc bd bd 47 1b 3c 65 1d 60 3d ad 68 f6 3d
       -0.12308674 0.009477553 0.054715533 0.12031684
000020 53 37 a5 be f4 1c 0b be fc 11 9c 3d 41 6a 49 be
       -0.32268772 -0.13585263 0.07620618 -0.19669439
000030 db 97 26 be 7b 1d 08 be 08 f0 6e 3d d5 85 fc bc
       -0.16268866 -0.13292496 0.05833438 -0.030825535
000040 c8 08 23 3e f5 58 51 bd 31 91 dc bd bc 66 b0 bd
       0.15921319 -0.051110227 -0.107698806 -0.08613345
000050 19 4d 7f 3e c9 6e 96 bd e9 41 9f bc a5 45 25 bd
       0.24931754 -0.07345349 -0.019440608 -0.04034962
000060 83 99 23 3d 80 f5 b5 3d b0 b4 a4 3d ec ce 41 be
       0.039941322 0.08884716 0.08042276 -0.1892659
000070 d5 96 dd be e9 08 5d be 46 24 66 be 49 67 7f 3e
       -0.43279138 -0.2158543 -0.22474775 0.24941744
000080 09 68 5d bc f6 d4 c1 bc dd 1e 87 bd df bf ac bd
       -0.013513573 -0.023661118 -0.065976836 -0.08435034
000090 b1 03 4c bd 84 9a dd 3d 76 e0 59 3d 73 3c 01 3e
       -0.049808208 0.10820487 0.05319258 0.12620716
0000a0 a7 3a 99 bd a5 67 2a be 4c d4 88 3d 87 56 82 be
       -0.0748189 -0.166411 0.066811174 -0.2545664
0000b0 0b 48 d7 bc bb 15 4f bd 11 56 ea be 14 a9 4d 3c
       -0.02627947 -0.050557833 -0.45768788 0.012552518
0000c0 d8 37 8c bd 86 5b a5 3d 1e 85 c1 3d 57 f6 a0 3e
       -0.06846589 0.08074097 0.09449218 0.31437942
0000d0 8f ac e6 bc 67 05 ac bd b8 75 f3 3d 3d 2b 54 3e
       -0.028158454 -0.08399468 0.118876874 0.20719619
0000e0 d5 eb e6 3c 66 90 21 be 72 c5 0c bd 65 23 bd bd
       0.028188625 -0.1577774 -0.034367986 -0.092352666
0000f0 f3 73 99 bd 3e a1 41 bb 75 51 b8 bd 4e 3d 98 3d
       -0.07492819 -0.002954557 -0.08999912 0.07433568
000100 f6 0a 76 bd d9 09 4c b9 81 4f 56 bd 0f d5 a2 bc
       -0.060069047 -0.00019458625 -0.052321915 -0.019876985
000110 f2 37 1c 3d ae 5b df 3d 9f 5f 42 3e 92 21 41 3e
       0.03813929 0.109061584 0.18981789 0.18860462
000120 8f 1b f0 3d 2b 4f 21 3d 4d ec ff 3c 61 e9 83 3d
       0.117240064 0.03938214 0.031240607 0.06440998
000130 19 cc 09 3e 39 77 e0 3c cb 70 98 3e 08 87 37 bf
       0.13456763 0.0274006 0.29773554 -0.71690416
000140 ac 0a 43 3e 79 26 4a 3e 07 b9 3e be 39 ce 20 be
       0.1904704 0.19741239 -0.1862527 -0.15703668
000150 af 5c 8d 3c 25 a4 11 bd 52 d9 7a bc 82 fb 2c bd
       0.017256109 -0.03555693 -0.015310602 -0.042232044
000160 7b 47 ca 3d 10 ef 6d be 4e fa db 3d 57 8f 82 bc
       0.09876915 -0.23235726 0.10741101 -0.01593749
000170 d6 89 a7 3e ad a4 8a 3e d1 f1 5b be f7 22 50 bd
       0.32722348 0.27078763 -0.21478964 -0.050814595
000180 27 ab e4 bb fc 1d 2e 3c 15 8d 24 3e b3 10 eb 3c
       -0.0069784108 0.010627266 0.16069444 0.028694486
000190 96 4c 69 3d 47 7b 9a 3d ea f2 2e be 5c 0b a4 be
       0.056957804 0.075430445 -0.17084852 -0.32039917
0001a0 50 ea 56 be 1b e2 4c bb 26 2f 5c 3c fa 99 80 be
       -0.2098782 -0.00312627 0.013438975 -0.25117475
0001b0 56 c8 57 3d ce e4 81 bc a5 fa 46 3c 5b d6 35 3e
       0.05268129 -0.015856173 0.012144719 0.17757551
0001c0 c8 ab d6 be f7 6e 0b 3e 55 53 de 3d 1e 52 0e bf
       -0.41927934 0.13616548 0.10855738 -0.5559405
0001d0 92 48 ad bc e5 01 a4 be 06 7f b1 3d ef 0a da 3d
       -0.021152768 -0.32032695 0.08666806 0.10646617
0001e0 bf de 58 bc 81 d0 27 bc 08 6b 3f bc d2 9f a2 3d
       -0.013236701 -0.010242582 -0.011683233 0.079406396
0001f0 9e 13 32 be d2 d8 d8 3b f1 a6 20 bb 09 51 c3 3d
       -0.17390296 0.006617644 -0.0024513567 0.095369406
000200 62 7f cc bd cc 32 79 be 70 62 89 be 5e 2c 52 3e
       -0.09985234 -0.24335784 -0.26832914 0.20524737
000210 49 2e 4c bd 78 88 f3 bd 2c d2 af bc d4 b6 56 3d
       -0.04984883 -0.11891264 -0.021462522 0.052420452
000220 34 83 9a bd ab af ad 3d 52 09 bc 3d 96 65 ea 3d
       -0.07544556 0.08480772 0.09181465 0.11445157
000230 38 2a 14 bc af 89 94 3e bf 2a 29 be 3f 15 87 bd
       -0.009043269 0.29011294 -0.16520213 -0.06595849
000240 ed 08 ae be 9d 71 9d bf 1f 53 80 3d 6a d5 07 3c
       -0.33991185 -1.2300297 0.06265854 0.008290628
000250 a2 68 1e be 05 cd ff bd 72 2d 1e be 1f 85 a1 be
       -0.15469602 -0.12490276 -0.15447024 -0.31546876
000260 a0 06 29 3e 61 fd de bc 4d 5c a3 3e 85 83 5f be
       0.16506433 -0.02722043 0.31906357 -0.21827514
000270 62 26 7d be 54 65 94 be 3c c1 db 3d ef cd cc bd
       -0.24721673 -0.28983557 0.10730216 -0.10000216
000280 fc 5c 7a be 92 fd bf be ca aa c9 be 0b f5 d3 bd
       -0.24449533 -0.37498146 -0.39388114 -0.103494726
000290 b0 0d ed bb ac 2f 9c be 47 4d 7d bd 75 f3 3a 3e
       -0.0072342977 -0.3050512 -0.061841276 0.18256934
0002a0 fe 28 49 bd 01 cb 61 3c 5a 6b c2 bd 11 6a e6 bd
       -0.04911136 0.01378131 -0.09493132 -0.11250699
0002b0 d7 f4 5c be ea 16 20 3e bc e3 57 be 33 23 14 bd
       -0.21577774 0.15633741 -0.21082968 -0.03616638
0002c0 fb 55 97 be 59 94 c4 be eb 81 ee 3d c9 93 67 be
       -0.29557785 -0.3839443 0.11645874 -0.2261497
0002d0 6c 16 4f be 97 56 ab bd e2 ae 28 be 09 64 13 bd
       -0.20223397 -0.08366125 -0.16472962 -0.035984073
0002e0 da a9 85 3c 35 61 34 bd bf 6f 54 be dc 17 1b 3e
       0.016316343 -0.044038016 -0.20745753 0.1514582
0002f0 9d 39 b7 bd 51 94 b2 3e 8d 60 01 3e 18 c2 a8 3e
       -0.08946536 0.3487878 0.12634487 0.32960582
000300 67 89 7f be e1 22 80 be 23 68 e9 be 6d 1a 01 be
       -0.24954759 -0.2502661 -0.45587263 -0.12607737
000310 2b d2 2d 3b ee 74 8e bd 53 db 8b bd 72 66 81 3d
       0.0026522975 -0.06955896 -0.06828942 0.06318368
000320 98 7c 56 bc 69 dc 3e bc 9e 7d 43 be b7 c0 e4 3d
       -0.013091229 -0.01164923 -0.19090888 0.1116957
000330 b7 cc c7 bd 92 22 81 3d 1a b3 88 3d 33 76 16 3c
       -0.09755843 0.06305422 0.06674786 0.009183454
000340 eb 1e 85 3d 9c 22 6f bd 12 3f 04 bd 7a 61 0a be
       0.06500038 -0.058382615 -0.03228671 -0.13513747
000350 1f 0d ac 3d 1b ae 04 3d 28 75 00 3e f9 3a a9 3d
       0.0840094 0.032392602 0.12544692 0.08263201
000360 44 c2 98 3c 62 a8 c0 be 74 79 a7 3d a4 3a 0d bf
       0.01864732 -0.37628466 0.08177462 -0.55167603
000370 62 b9 aa 3a 85 e9 40 bc 29 ac 93 bd e5 23 eb bc
       0.0013025219 -0.011774425 -0.07210571 -0.02870364
000380 27 1e 86 3c db a0 ee bd bc 13 f3 bd d0 e0 00 bd
       0.0163718 -0.116517745 -0.118689984 -0.031464398
000390 3f 99 93 3b 9c fe 09 bd 05 f2 9b be 25 6b ce 3e
       0.0045043523 -0.03369008 -0.30458084 0.4031612
0003a0 e9 d0 94 3c d3 a6 15 bd 4f 30 8e 3d fa 0c 02 3e
       0.018166022 -0.03653605 0.06942808 0.12700263
0003b0 6f d2 84 3e c0 bf 94 be e4 4a 4a bd 57 50 9f 3d
       0.25941798 -0.29052544 -0.049387828 0.077789955
0003c0 bf 04 c3 3c d5 bc 80 bd 74 e8 8c bc 71 11 31 be
       0.023805974 -0.06286017 -0.017200686 -0.1729181
0003d0 87 90 07 bc b6 0a b3 3c 21 ba 47 3e 08 07 5a be
       -0.008274204 0.021855693 0.19504596 -0.21291745
0003e0 4b 8b 68 bd 58 c4 92 bd 00 a0 79 bc 2a 71 09 bd
       -0.056773465 -0.07166356 -0.015235901 -0.033555187
0003f0 73 a1 af 3d 4a 75 7a be da 60 40 bd d9 cc 91 3d
       0.08575716 -0.24458805 -0.046967365 0.0711915

fc1.bias f4 [64]
000000 7b ab ff 3d 2b 8a 56 bd 3b 91 5b be 41 ed 3e bd
       0.12483879 -0.05237786 -0.2144212 -0.04661298
000010 4b 74 e4 3d 72 3d 86 bd 62 a7 0b be 7b 0a b0 3c
       0.111549936 -0.065546885 -0.1363807 0.021489372
000020 36 17 b1 3c 6d 39 6f be c3 22 00 3e e9 f3 46 3e
       0.021617513 -0.2336175 0.1251326 0.19428982
000030 5c 35 a2 3e c2 41 38 3e d3 20 c2 bd 63 fc c2 bd
       0.31681335 0.17993835 -0.09478917 -0.09520795
000040 a4 13 f7 3b 1c 13 ae 3c 02 44 64 3d 76 1b 2b be
       0.007540183 0.021249346 0.05572892 -0.16709694
000050 7a 9f 10 be 42 bd 16 3d 64 ec 35 3c 25 f9 c6 bd
       -0.14123335 0.036801584 0.011103723 -0.09715489
000060 37 82 29 be 1b 0b 43 ba 6f 92 08 be cc 87 51 be
       -0.1655358 -0.00074403145 -0.1333711 -0.20461959
000070 8a 3e 19 3e 0b 62 19 3e 39 8c 8b bd 9a b6 23 be
       0.14965263 0.14978807 -0.06813855 -0.15987626
000080 b3 32 04 3e 7f 7f 47 3b 44 3e 19 bd 6d 9d 10 3d
       0.12909965 0.0030440984 -0.037412897 0.035306383
000090 d0 96 93 bd 14 c1 be 3a 7a b2 04 bd af 23 ca bd
       -0.072064996 0.0014553391 -0.03239677 -0.09870087
0000a0 18 8e 06 bd 87 51 37 3d 19 e5 de bd 0a ea ad 3d
       -0.032850355 0.044755485 -0.10883541 0.08491905
0000b0 dd 99 9a 3b c2 b0 ed bd b7 97 1e 3d eb b1 d3 bd
       0.004718049 -0.116059795 0.038718905 -0.103366695
0000c0 29 a4 d4 bd 6c c2 e0 3c fe 9a 15 be 99 d4 cb 3d
       -0.103828736 0.027436458 -0.14609906 0.09952659
0000d0 f4 77 27 3d 5c 9e 7b bd 12 da 56 be 1a da a8 3b
       0.04088588 -0.06143032 -0.20981625 0.005152953
0000e0 7a 3f e6 3d f3 62 fb bd 16 4a b0 bd 1f 1f fd bd
       0.11242576 -0.122747324 -0.08607881 -0.123594515
0000f0 a0 b5 ba 3a e0 23 04 3e 09 0d 21 3d a2 64 2c 3d
       0.0014244802 0.1290431 0.039319072 0.04208816

fc2.weight f4 [64, 64]
000000 00 86 ca bd 17 30 ad 3c df 5a 3d 3e 79 1f 3d 3e
       -0.0988884 0.021141095 0.18491696 0.18469037
000010 fe 1a aa 3d 56 c7 ab bc 08 95 5c bd 4c 46 d9 bd
       0.083059296 -0.020969074 -0.053853065 -0.10609111
000020 40 f5 f3 3c 67 59 99 3c 48 0c 83 bd 45 fd 24 be
       0.02978003 0.018719388 -0.06398827 -0.1611224
000030 82 1e 4f bd 08 f7 ef 3d 86 6a 8c be 04 ea 06 bc
       -0.050566204 0.11717039 -0.2742502 -0.008234505
000040 54 60 6c bd 7f 21 07 bf bb 23 8b 3d 60 4a 27 be
       -0.057709053 -0.52785486 0.067939244 -0.16336966
000050 bd 8b ce bd 69 c5 90 bc 22 21 db 3e 1c 34 6e be
       -0.10085247 -0.017672257 0.42798716 -0.23262066
000060 95 ff 85 be ff 01 37 be 97 45 43 3c 19 1f fb 3d
       -0.26171556 -0.17871855 0.011918447 0.12261791
000070 4c c3 a6 bb b4 e7 5c be 29 61 0f 3d 42 10 c5 3c
       -0.005089199 -0.21572763 0.03500477 0.024055604
000080 7a 78 59 bd c0 2f 6a 3e 30 d6 b3 bc 64 ed e1 bd
       -0.05309341 0.22869778 -0.021952718 -0.11031607
000090 87 fe c1 be c2 04 32 3e 8c 53 ba 3e 7f a0 1c ba
       -0.378895 0.17384627 0.36391866 -0.00059748435
0000a0 86 4d ea be 0d 9b 8a bd 08 e6 3d 3e 57 77 24 3d
       -0.4576227 -0.06767855 0.18544781 0.040152874
0000b0 70 d8 1c bd 42 ec c9 bd c6 06 50 be 56 30 43 3e
       -0.03829235 -0.09859516 -0.20315084 0.19061407
0000c0 07 57 42 3d 1a e9 87 3d 0f a7 57 bd 28 03 07 be
       0.047446277 0.066362575 -0.052649554 -0.13184798
0000d0 c1 34 51 be 03 85 00 3f 54 93 f8 3d 4e 2c 0e 3d
       -0.2043028 0.5020296 0.121374756 0.03471022
0000e0 8f 5b 8a be f5 4c 8c bd 7b 6d 27 be 4a e8 cb 3c
       -0.2702298 -0.06850616 -0.16350357 0.024891037
0000f0 68 47 9e 3d 9c 99 d6 3d ce f0 02 bd cd 3b 98 be
       0.077284634 0.104785174 -0.03196793 -0.29733124
000100 f4 d2 72 bc 2e 49 a6 3d b1 ff 15 be ce c7 ce 3d
       -0.014820803 0.08119427 -0.1464832 0.100967035
000110 4b d7 06 bc 90 be e9 3d 6f 24 b5 be d3 7a 25 3c
       -0.008230041 0.114133 -0.3537936 0.010100084
000120 d8 62 eb bd 19 45 22 be 26 64 43 3b f6 f3 ca 3e
       -0.11493462 -0.15846671 0.0029814332 0.39639252
000130 e3 55 85 be 1b e8 ae 3d b5 96 4f be d9 77 9a 3e
       -0.2604209 0.08540364 -0.20272334 0.30169562
000140 78 a8 3e bd c1 4a 56 be 7c e4 0a be a0 38 dc bb
       -0.046547383 -0.20926954 -0.13563722 -0.0067206174
000150 de c5 1c 3e 39 75 31 bc 77 37 16 bd 09 6a 21 ba
       0.15309855 -0.010831171 -0.03667399 -0.0006157463
000160 be a6 94 bd 80 3f 46 3e cb af e9 bc bb 8e 05 be
       -0.07258366 0.19360161 -0.028526207 -0.13042729
000170 46 87 4d 3e 35 8a 4d bd 6c b3 2b 3e 70 62 f4 3c
       0.20071134 -0.050180633 0.16767663 0.029832095
000180 a1 d3 3c be 01 eb 2b bd 1b 8f 73 bd 95 29 df bd
       -0.18440105 -0.041972164 -0.059462648 -0.10896603
000190 5a 0e 36 be 9f 01 03 bd 65 27 ef bd 67 40 6d bd
       -0.17778912 -0.031983968 -0.11677436 -0.057922747
0001a0 5e a5 35 be aa 2b 8a 3e 9d d4 5a 3e ab 3d 03 bd
       -0.17738864 0.26986438 0.21370168 -0.032041233
0001b0 ee 5a 45 bd c4 4a bd bd 52 f2 a5 be 3c eb 31 be
       -0.04818242 -0.09242776 -0.32411438 -0.17374891
0001c0 9f 67 68 be 21 c6 b9 3b ac ca 12 be 78 1e ac 3e
       -0.22695778 0.0056693708 -0.14335126 0.33616996
0001d0 af e2 bc bd 99 22 19 be 60 c7 2a 3d c3 1b f9 bd
       -0.09222924 -0.14954604 0.041694045 -0.12163498
0001e0 5d f0 4a be 21 06 92 bd ff cd 1b 3e f7 8e 96 3a
       -0.19818254 -0.07130075 0.152153 0.0011486699
0001f0 cf f6 19 bc 8f 99 0b 3c 2f df 92 3e 8e 33 cf bd
       -0.009397223 0.008520498 0.286859 -0.10117255
000200 88 c9 8d 3e d7 09 d4 bd b2 65 54 3b 04 98 88 3d
       0.2769282 -0.10353439 0.0032409248 0.0666962
000210 7f 7b 6c be 2e 82 41 3d af 0c 24 be 20 32 2c be
       -0.23093985 0.04724329 -0.16020463 -0.16815996
000220 e4 35 17 3e d0 a3 b1 bd ec 07 84 3d 5e 7b 51 be
       0.14766651 -0.08673823 0.064468235 -0.20457217
000230 0a 35 0b 3e 7f 43 58 3c 65 98 51 bd 37 9d 90 be
       0.13594452 0.013199686 -0.051170725 -0.28244945
000240 fc 65 1a 3d e0 d3 8a 3e d9 87 15 3d 36 4a 40 be
       0.037694916 0.27114773 0.036506508 -0.18778309
000250 35 e0 51 be 1c 51 e0 bd 09 cb a9 bd bb 7d 78 be
       -0.20495684 -0.109529704 -0.08290679 -0.24266712
000260 b5 76 70 be 9c 34 65 3e 1d 09 ae bc 90 e0 dd bd
       -0.23482783 0.2238335 -0.02124458 -0.108338475
000270 22 ad bc bd c0 be 91 3d 9a ca 9e bd a0 01 f3 bd
       -0.0921271 0.07116461 -0.07753487 -0.11865544
000280 b1 3d ce bd f0 c6 f0 bd 2f 98 8f 3c 91 3e ea 3d
       -0.100703605 -0.11756694 0.017528621 0.11437715
000290 1b 25 a3 bd af 0b 0e bd 1d 08 fd bd ea 84 94 bd
       -0.07966062 -0.03467911 -0.12355063 -0.07251914
0002a0 27 96 6f 3e 2b b9 f6 be df 96 6d bd b2 69 38 be
       0.23397122 -0.48188147 -0.05800521 -0.1800907
0002b0 02 a1 b1 bd 7d d3 dc bd 71 ba 5a bd 4a 46 0c 3e
       -0.08673288 -0.10782526 -0.05340046 0.13698688
0002c0 fd 74 8c be f6 7e bb 3d ff c2 7f bd 34 3f 14 be
       -0.27433005 0.09155075 -0.062441822 -0.14477235
0002d0 21 87 ae be 63 72 4d 3e ef fb f9 3d 01 07 02 bd
       -0.3408747 0.20063166 0.12206256 -0.03174496
0002e0 2c 3f ec bd 14 af cf bd b9 82 f5 3d c5 68 af bd
       -0.115354866 -0.101408154 0.11987824 -0.08564905
0002f0 16 a0 ce 3c 91 b3 1f be 85 90 9b 3e fb 6a 44 3d
       0.02522282 -0.15595843 0.30383697 0.047953587
000300 25 cc 00 3c 52 7d 8a bd 06 90 34 bc 0c 47 fa bd
       0.007861172 -0.06762184 -0.011020666 -0.12220582
000310 ef fc f5 bd 00 d3 4f 3d ad d6 1b be 64 ce 70 bd
       -0.12011134 0.050738335 -0.15218611 -0.05879058
000320 e6 27 41 3d 70 06 46 3d 48 56 7b be 80 46 ec 3d
       0.04715719 0.048345983 -0.24544632 0.11536884
000330 2a 25 cf bd 35 47 c4 3d b2 27 7e 3c 64 11 35 bd
       -0.1011451 0.09583894 0.015512394 -0.044206038
000340 d0 1a f3 bd 45 bd be bd b9 6f 35 3c d8 1b 39 bc
       -0.118703485 -0.09313444 0.011074 -0.011298142
000350 34 12 d0 3d 6e 2f 51 3c 5b d3 a5 be 1b 1a 41 bc
       0.10159722 0.012767656 -0.32387814 -0.011786009
000360 ba 0f 24 3d 6e 57 b7 be ce 72 d1 3e f3 00 d5 bd
       0.04005406 -0.3580889 0.40907902 -0.10400572
000370 7a 4e e4 bd 9f 44 8f be c9 7d 18 be fd a6 87 3d
       -0.11147781 -0.2798204 -0.14891733 0.06623647
000380 49 56 3e 3d e2 61 08 3d 1c fc ec 3c 54 93 05 3c
       0.046469007 0.033296473 0.028928809 0.008152802
000390 21 84 84 bd 36 d3 a0 bd de 37 82 3f a4 3b 2b 3d
       -0.06470514 -0.07852785 1.0173299 0.041804925
0003a0 ee 89 dd be 4f 67 7f bd 15 9f 8b bd d2 fa d8 bc
       -0.43269295 -0.062354382 -0.06817452 -0.026486788
0003b0 19 2e 0a 3d f9 4c 64 3c 4f f2 40 bd 84 ff a4 be
       0.03373537 0.013934367 -0.047106083 -0.32226193
0003c0 25 bd b1 3d 74 1c 66 3e 40 14 5c bd 7e 40 e8 bc
       0.086786546 0.22471792 -0.05373025 -0.028351065
0003d0 9e 41 8c 3c a7 02 a2 be 5f d7 f3 be 33 d4 e7 3d
       0.017121132 -0.3164265 -0.47625253 0.11319771
0003e0 75 c4 e0 be 28 10 51 be cb 9c 22 be 95 ea cc 3c
       -0.43899885 -0.2041632 -0.15880124 0.025014201
0003f0 63 bd a8 be a9 7b e5 3c e5 9b 34 3e 7f 51 b4 bb
       -0.3295699 0.028013067 0.17637594 -0.005502879

fc2.bias f4 [64]
000000 bd 8a 2f 3c f2 a5 ce bd 39 c8 a2 3d 5b 4b 14 bc
       0.01071423 -0.10090245 0.07948346 -0.009051169
000010 37 8d 93 3e ea 94 b7 bd 10 ad 47 bd ef f6 5d 3d
       0.28818676 -0.0896395 -0.04874903 0.054190572
000020 4d 36 84 3e 45 2f e2 3e aa 08 8a bd 42 6a 1a 3e
       0.25822678 0.4417669 -0.06739934 0.15079597
000030 f8 c2 96 3d 6d 14 ec bd 3a 73 12 be 13 d4 28 3d
       0.07361406 -0.115273334 -0.14301768 0.041217875
000040 7a e6 62 3e 6c 42 ec bc 3a 74 12 be 8f a9 36 3e
       0.22158232 -0.028840266 -0.1430215 0.17838119
000050 c5 26 8d 3e 92 fb ba 3e 52 78 73 be 90 70 8a bd
       0.2756864 0.36520058 -0.23776367 -0.06759751
000060 d8 39 b5 bd 2b d2 25 be a5 95 ab 3d b8 47 11 bd
       -0.088489234 -0.16193454 0.08378152 -0.035468787
000070 24 b5 1f bd 53 3c 9c bb c8 a4 6c 3d 5c 20 63 3d
       -0.03899111 -0.0047679334 0.057774335 0.055450782
000080 70 c6 88 3c 76 bd cb 3d 46 fe 89 bb 72 ae df bd
       0.016696185 0.09948246 -0.00421122 -0.10921945
000090 d9 85 2a bd f0 09 00 be 36 57 86 3d ed 3c 03 3c
       -0.041631553 -0.12503791 0.06559603 0.008010131
0000a0 f1 b5 e3 bd 6c 1e e6 3e 0f 0f b6 3e bb 57 c2 bd
       -0.11118687 0.44945085 0.35558364 -0.094893895
0000b0 da 68 5a 3d 1d d2 f9 bd 8b fa a0 3e 76 e1 e4 bd
       0.05332265 -0.12198279 0.3144115 -0.11175816
0000c0 a6 79 b4 3d 14 ad e8 bd 30 4a a0 bd 61 1a cc 3e
       0.08812265 -0.11361137 -0.0782665 0.39863876
0000d0 af d4 2d 3d 26 31 47 be f1 3b b4 3d ff 4a 87 bd
       0.04243916 -0.19452342 0.088004954 -0.06606101
0000e0 99 5a 1d be 61 a4 fb bd a3 c3 fd bd 72 ef eb bc
       -0.15366592 -0.12287212 -0.1239083 -0.0288007
0000f0 6d 70 ff 3d 67 9c 91 3e 73 28 05 bd 56 a1 9e bd
       0.124726154 0.28439638 -0.03250928 -0.07745616

fc3.weight f4 [4, 64]
000000 e0 c6 71 3e 09 9e 24 3d c2 22 4b 3e b4 59 2b 3e
       0.23611021 0.040189777 0.19837478 0.16733438
000010 ee 80 35 3e f8 9d e9 bd 7a 6e 94 3e 51 5c 16 be
       0.17724964 -0.11407083 0.28990537 -0.14683653
000020 8a a5 1e 3e a2 4f 0c 3e a1 b9 82 be 76 e1 b8 bd
       0.15492836 0.13702253 -0.2553225 -0.09027378
000030 4c 3f 21 3d 8b 64 0e 3d 8b 60 92 bd 31 51 80 be
       0.039367005 0.034763854 -0.0714732 -0.25061944
000040 6e 01 f0 3d 74 01 c9 bc e7 fd 27 be 8b 25 11 3e
       0.11719023 -0.024536826 -0.1640545 0.14174478
000050 28 a0 9e 3d 40 a6 40 3e b6 21 c1 bd 11 79 4a be
       0.07745391 0.1881342 -0.09430258 -0.19772746
000060 59 c0 7a bc d7 b2 ca be a5 56 d4 be c4 62 af 3d
       -0.015304648 -0.3958957 -0.41472355 0.0856376
000070 3e 56 dc 3e 76 95 07 3f ea c6 c1 be d0 71 9d 3d
       0.43034548 0.52962434 -0.37847072 0.07687724
000080 a7 d9 ab 3d 69 a3 d2 3e 12 88 2e 3c eb 88 2f b9
       0.08391123 0.41140297 0.010652559 -0.00016740306
000090 29 06 9a 3e 0c a0 96 be 2e bd c5 3e a8 6f 58 3e
       0.30082825 -0.2941898 0.38620895 0.21136343
0000a0 61 0f 12 be ad 78 05 3e 91 e6 0d 3e 77 d5 22 be
       -0.14263679 0.13034315 0.13857485 -0.15901743
0000b0 38 0d d0 3e 78 db ec bc 20 f3 49 3e 8f 90 01 3f
       0.40635085 -0.028913245 0.19721651 0.50611204
0000c0 7b f9 4d 3c c1 00 91 3e 98 26 a7 3e 47 37 08 3e
       0.012571688 0.28320888 0.32646632 0.13302337
0000d0 fa 7e 82 3e 51 93 03 bd 74 6b a3 3d da d0 3f bd
       0.254875 -0.032122914 0.079794794 -0.046830036
0000e0 3e 97 15 bf ce ec f5 3d 9f 0d 4c be 9f 48 25 3e
       -0.584339 0.120080575 -0.19927071 0.16140984
0000f0 e1 14 87 3d 52 f2 30 3e 2f 8e f1 bb a7 03 36 3e
       0.06595779 0.17279938 -0.007371686 0.17774831
000100 ac 5f 80 3e 95 ef 4c bd 73 a7 44 3e 8b 5d da 3e
       0.25072992 -0.05003317 0.19204502 0.42649493
000110 67 87 0b 3e 3e 19 10 3e dc 0c 6b 3e da 7a 34 bd
       0.1362587 0.14072129 0.22954124 -0.044062473
000120 b2 7c 02 3e 55 e0 24 3e 4e bf 3f be d6 d9 84 bd
       0.1274288 0.16101201 -0.1872532 -0.064868614
000130 0a d5 75 3d 49 8b a0 3e d9 45 ad 3d 29 74 c8 3c
       0.060017623 0.31356266 0.08460588 0.024469452
000140 b4 87 f0 3c eb c3 c3 3e 87 87 8a be 11 a4 55 3e
       0.029361583 0.3823541 -0.27056524 0.20863368
000150 ba 5b f0 3d 9b 71 43 3e 32 15 e4 bd 66 d6 02 be
       0.117362455 0.19086306 -0.11136855 -0.12777099
000160 51 00 e6 3d a0 e3 bb be ad 81 cf bd 29 b2 e7 bd
       0.11230529 -0.36697102 -0.101321556 -0.11313278
000170 8e 73 d0 3e 8c 62 cc 3e 66 2e 1c be 9f a7 0d 3e
       0.4071316 0.39918935 -0.15252075 0.13833474
000180 02 3b e2 3b c1 ca 9b 3e 37 44 17 3e 24 99 73 bd
       0.006904007 0.30428126 0.14772116 -0.05947222
000190 a9 34 89 3e 67 b9 8e be 32 50 ae 3e 6e 5a 70 3e
       0.2679799 -0.27875826 0.3404556 0.23471996
0001a0 eb 84 a1 3b 01 4a 20 3e 23 f9 8c 3d 5e 94 a0 3c
       0.004929175 0.1565323 0.068834566 0.019601997
0001b0 08 89 02 3f a1 4e 02 be 94 17 48 3e 6e 4b f9 3e
       0.50990343 -0.12725307 0.19540244 0.4869036
0001c0 e1 9d 68 3d 76 b3 7d 3e 4b c4 e3 3e b5 05 82 3d
       0.05679119 0.2477549 0.44485697 0.06348745
0001d0 47 f0 5c 3e 32 ef f3 bc b0 d7 97 3d 6d 2c b5 3a
       0.21576034 -0.029777143 0.07414186 0.0013822444
0001e0 d9 ad da bd 86 33 fc be fe a3 33 be 7c 23 2a 3e
       -0.1067769 -0.4925806 -0.17543027 0.16615099
0001f0 04 7b 4c 3d 08 61 44 3d b2 e7 f3 bd 93 ef f3 3d
       0.049922004 0.0479441 -0.11909427 0.119109295
000200 aa 60 a8 3e 3a 99 f8 3e 22 97 82 3b 26 60 32 3f
       0.3288625 0.48554403 0.0039853016 0.6967796
000210 1a 54 1c 3e df 87 69 3e 9a 40 a9 3e 11 84 03 bd
       0.15266457 0.22805737 0.330571 -0.03210837
000220 87 f1 45 3d bc cf f7 3d 7e b8 a9 be c1 8f 48 3e
       0.04832604 0.12100169 -0.3314857 0.19586088
000230 35 20 1f 3e 51 19 e1 be 0a 68 95 3d 3d a8 1d 3e
       0.1553963 -0.43964627 0.072952345 0.15396209
000240 96 b9 21 3d cc f9 9b 3e 4a 6d b3 3d 12 74 c1 3d
       0.03948363 0.30464017 0.087610796 0.09445967
000250 48 1c bb 3d 72 51 7d 3e a3 b3 18 be e8 8b 2b bd
       0.091362536 0.247381 -0.14912276 -0.041881472
000260 7e 69 b4 3e 80 c2 ab 3d bd 7b 4a be 9a 72 9e be
       0.35236734 0.08386707 -0.19773765 -0.3094681
000270 47 a7 e8 3e 8e c7 b1 3e 88 65 22 be 4d e8 17 3d
       0.45440122 0.3472256 -0.15859044 0.037086774
000280 37 6c 9c be 45 d1 51 3e 4e d8 30 3e 5f 41 a9 3d
       -0.3055131 0.20489986 0.17270014 0.08264422
000290 55 84 e2 3d a7 51 83 be f4 bf 57 3e 67 24 a9 3d
       0.110603966 -0.25648233 0.21069318 0.08258896
0002a0 ad 5b e0 be af 6a 53 3e e2 de 30 3e 2d bc 9f be
       -0.43819943 0.20646165 0.17272523 -0.31198254
0002b0 d3 68 f2 3d eb 36 af 3c 3b e1 2c 3e 54 a2 08 3f
       0.118364 0.021388492 0.16882794 0.53372693
0002c0 d6 8c 03 3e dc 8b cc 3e 57 49 59 3e 56 4c 61 3e
       0.12846693 0.39950454 0.21219383 0.22001776
0002d0 0d b2 87 3d 36 cd fa 3d 3e 72 24 3e f2 4d d9 3d
       0.06625757 0.12246172 0.16059205 0.1061057
0002e0 af 26 e4 be bd af e0 bd 3a d3 75 bd c8 80 b5 3d
       -0.44560763 -0.109710194 -0.060015894 0.08862454
0002f0 27 33 34 bf 7f c1 03 3e d4 37 a7 be 8b 1e 85 bb
       -0.7039055 0.12866782 -0.3265978 -0.004062479
000300 b2 5a d6 3e b9 db 03 3f 8d 5c 2e 3e fb a3 1d be
       0.4186607 0.51507145 0.17027493 -0.15394585
000310 3d 54 5f 3d d8 11 6d be ca fc 44 3e a9 30 15 3e
       0.054523695 -0.23151338 0.19237056 0.14569344
000320 69 d5 26 3e c2 28 44 3e f6 f7 f8 3d cf 70 ff bd
       0.16292347 0.19156173 0.1215667 -0.124726884
000330 cc 73 97 3e 5c a5 85 be a8 c4 03 bf 87 09 df bc
       0.29580534 -0.26102722 -0.5147195 -0.027226223
000340 f1 3d 44 3e bf f1 88 3e 01 f8 77 be 91 4d 47 3e
       0.19164254 0.26746938 -0.242157 0.19463183
000350 ce fa a0 3d 16 c2 6f 3e 15 a0 46 be 82 eb e9 3d
       0.07860337 0.23413882 -0.19397004 0.11421873
000360 ca 6c 8e 3e 37 5c 8b be 74 df 87 be ec 95 98 3e
       0.27817374 -0.27218792 -0.2653767 0.2980188
000370 c0 44 2b 3e 31 20 c2 3e 92 34 a0 be dd 20 b4 3d
       0.16725445 0.37915185 -0.31290108 0.08795331
000380 aa 1f 88 3d 1f 14 49 3e 34 a2 00 3e 03 80 7e 3c
       0.066466644 0.19636582 0.12561876 0.01553345
000390 f3 78 a7 39 d9 76 21 be 8e f0 18 3f c8 5a c5 3e
       0.00031942836 -0.15767993 0.5974206 0.38545823
0003a0 d4 70 3c be 6e 5c 3d 3e d9 14 16 3e 4a 59 cc bd
       -0.18402416 0.1849229 0.1465639 -0.09977968
0003b0 74 88 1d 3f f3 31 86 be a9 fc 1f 3e 77 f2 33 3e
       0.61536336 -0.26209983 0.15623726 0.17572962
0003c0 97 b2 17 3d 4b 05 90 3e 6c e2 a6 3e 8b fe 03 3e
       0.03703555 0.28129038 0.3259462 0.12890069
0003d0 a0 d4 0a 3e 89 cf fa bd 9c b3 33 3d 34 a0 6b 3e
       0.13557673 -0.122466154 0.04387246 0.23010331
0003e0 49 0f 28 be 9b 25 06 be 9a bb b3 be 23 78 55 bd
       -0.16412081 -0.13100283 -0.35104066 -0.052116524
0003f0 ed 3d 1c be 67 c8 80 3d 01 69 0f be 4d 9c 6d 3e
       -0.15257998 0.06288224 -0.140049 0.23204155

fc3.bias f4 [4]
000000 e3 94 a5 3e 30 c5 98 3e 6a ac 0d 3e 7b 18 43 3e
       0.32340154 0.29837942 0.13835302 0.19052307
