Continious Control/checkpoint_critic.pth (torch_old, 211021 bytes, 19 tensors)

bn.weight f4 [33]
00000000: 3038 093f 2a3f e23e 82a2 053f 1d65 d53e
00000010: af6f dd3e 6c12 ca3e a3b8 cc3e 7987 0c3e
00000020: b908 e83d 067c eb3d 4572 7e3e 3be7 663e
00000030: 16b4 723e 6d64 853f 6acc 143f addc 833f
00000040: 0d93 dd3e 90ef 053f a8c6 cb3e 42b2 293f
00000050: 2ff5 1e3e eb89 ae3d b906 d93d 21bf 033f
00000060: 86db e33e a3cc fa3e 8d5d 843f 8509 8436
00000070: 57ea 813f fce1 9a36 68d4 5735 5da6 5136
00000080: 7d62 8e3f
0.5360136 0.44188815 0.5220109 0.41678706 0.4324927 0.3946718 0.39984617 0.13723554
0.11329789 0.11498265 0.24848278 0.22549145 0.2370151 1.0421273 0.5812441 1.030172
0.43276253 0.5231867 0.398 0.66287625 0.15523218 0.085223995 0.10596985 0.51463515
0.4450342 0.4898425 1.034105 3.935015e-06 1.014964 4.6158657e-06 8.0402833e-07 3.1240263e-06
1.1123806

bn.bias f4 [33]
00000000: 9f15 07bb 782f 943b f2bd d1ba 3878 aabb
00000010: ab31 ccbb 75c8 073b f7bb 32ba 1dbe 5839
00000020: a188 09bb 347f 58bb 094c 31ba b87a d33a
00000030: 9439 a4ba 94b4 08ba 743b 21bb 6099 753a
00000040: 7b9d a93b a843 963a 4889 0a3a 4ffd 0bbb
00000050: 08be 583a 6e0a ccb9 aaee 493b 430c b938
00000060: c819 c83a 5fa4 8d3b f4a5 1ebc 86a1 05b0
00000070: f120 cf3a 613a c232 495c 0bb3 871f 19b1
00000080: 3988 d8ba
-0.0020612252 0.0045222603 -0.0016002043 -0.0052023195 -0.006231507 0.0020718847 -0.000681817 0.00020670188
-0.0020985978 -0.0033034803 -0.0006763344 0.0016134595 -0.0012529367 -0.00052148965 -0.0024602087 0.0009368863
0.005176244 0.0011464255 0.0005284739 -0.00213607 0.0008268063 -0.00038917683 0.003081242 8.823771e-05
0.0015266472 0.004322573 -0.009683121 -4.8614657e-10 0.0015802664 2.261112e-08 -3.2447392e-08 -2.2282352e-09
-0.001652009

bn.running_mean f4 [33]
00000000: f928 b5bd d372 1fc0 1ff4 2a3d a568 3a3f
00000010: 47e1 c6bc 4dd1 e73b bbe8 1f3c 049a 453c
00000020: ed5b 673b 13e3 123b 8ff7 983c c72e 4d3c
00000030: d258 183a f261 1cbe 2528 3bc0 251c 16bd
00000040: 9a1a a83c d7c4 a0bd 1d79 2e3c c5d5 8cbe
00000050: 937f aaba e9f2 2cbc 9a2e 98bc 4940 1cbc
00000060: 4fea 133e 56bf 85bc 652d 62bd fcff 7fbf
00000070: b078 ca3c 0000 0000 fcff 7f3f 0000 0000
00000080: 18a7 7abb
-0.088457055 -2.4913833 0.04173672 0.72815925 -0.024277342 0.007074511 0.009760077 0.012060646
0.0035302595 0.0022413179 0.018672733 0.01252336 0.0005811575 -0.15271738 -2.9243252 -0.036647934
0.020520497 -0.07850044 0.010648993 -0.27506843 -0.0013007991 -0.010555961 -0.018576909 -0.009536811
0.1444485 -0.016326588 -0.055219073 -0.99999976 0.024715751 0.0 0.99999976 0.0
-0.0038246568

bn.running_var f4 [33]
00000000: 3f25 6540 3e99 b73f 9c7c 9a40 34d3 683e
00000010: 4005 823d 6561 603d 0db7 fc3d 56df 2e3f
00000020: 396b a63d 822d 363e a397 5140 a078 4740
00000030: d820 7740 8371 8441 d857 8340 50df a841
00000040: a479 093e e1da a83e 3113 003e bb29 a83e
00000050: f4e2 3b40 653b 4e3f b6dd 873f dfb3 2941
00000060: a802 3341 6d17 5641 75d1 ff41 0400 0000
00000070: 1712 0042 0400 0000 0400 0000 0400 0000
00000080: 146f ab3e
3.5803983 1.4343641 4.827711 0.22736818 0.063486576 0.054780383 0.12339602 0.68309534
0.0812592 0.17790797 3.2748802 3.1167374 3.8613796 16.555426 4.104473 21.10904
0.13425308 0.3297949 0.12507321 0.32844338 2.9357271 0.8055938 1.0614536 10.606414
11.1881485 13.380719 31.977274 6e-45 32.017666 6e-45 6e-45 6e-45
0.33483183

fcs1.weight f4 [256, 33]
00000000: 3a52 30be 57be dfbe 6920 7c3d ee38 a53e
00000010: fcea a9be dec6 1b3f a890 9abe 8d58 0c3d
00000020: 7be1 40bf 02a8 93be 7965 e33e 2948 7e3e
00000030: bfe9 cabe 2bf0 ab3e 3ba0 d13e 8611 3f3e
00000040: 9c1f 1bbf b32c a23d b030 1c3f 3cd0 f1be
00000050: 6c6f 343d b7cd 213d 5f2e 483e 5582 e43e
00000060: ce50 823d bbef 8f3e 96b6 07be a59a 22b5
00000070: 4b50 463e 6eda 06b5 2f13 85b5 25af 7db5
00000080: f632 6b3d ceba 88be 418f a1be 0d6d 64be
00000090: faef 703e c153 26be 4c10 ac3d 1d50 613e
000000a0: 8585 183f 08ac fbbe 8f38 9cbe c3fe 01bf
000000b0: 8b67 5c3e c7a2 9e3e df22 80bd 27a8 c13d
000000c0: 95d6 083f bcc8 893e 4ef7 97bd 810b 8e3f
000000d0: a575 f6bd 7e22 333e e424 4dbe 04de 2bbe
000000e0: d9af 483e 8ffe 09be 1f90 09bd 7623 993e
000000f0: 2f2c 9233 46c6 25bf b188 1435 e814 86b4
00000100: 48b3 b8b3 8264 3a3d da38 543e 67e4 463e
00000110: 18fa e6bc 7626 c9bd df8a 813c 8598 73be
00000120: 499b e53e ffc4 923c 3f2c 823e f1d0 02bf
00000130: aec9 183d aadd a23d a34d 31bd 54cf 0f3e
00000140: 581e 96bd 3cd9 653e 0ca9 b5bd 7d6b aebe
00000150: 8cdc 0b3e 9ad3 79be a936 ec3d 45d5 573e
00000160: c65a b73d 4b45 8abe 1509 4ebd 8720 01bf
00000170: 80df e9be 1e0f 86b4 0f6c 48bf b108 58b5
00000180: 7d14 8f33 a69a 81b5 1b83 39bf 02dd bbbe
00000190: 1ae1 c53d c240 603f bb56 1bbf a0e8 473e
000001a0: f266 7fbe 132f 103f 71ee 5cbe 5720 a23d
000001b0: 6f3e 343d c433 083e bf97 8ebe de02 133f
000001c0: c932 b73e 0074 b1bc 1ddf 343e d6eb 653e
000001d0: ea11 bfbd 1f85 61be 4a55 373e bbe6 be3e
000001e0: d40e c33d 1c7a e03e b1a5 6fbd 0aac 3c3f
000001f0: 98a2 4a3e a09c 4b3e b1e6 7eb5 4b0c 83be
00000200: 5d02 7cb4 9c5c d3b4 f0e3 63b4 8fd2 8dbd
00000210: 96da 2bbe d977 08bf 74b6 81be c853 a8be
00000220: 7a89 563e 943b c83d 2e3a afbe e542 403f
00000230: 3b2e 9fbe aff5 13bf 47a6 70be f72b 42bf
00000240: cf12 cfbe d608 64be ddbc 103f 0826 9c3e
00000250: 4c2e b83c e93c 87be fee4 02bd 8338 2e3d
00000260: 6edb b0bd 8fca c73e 8c56 25bd ce48 ec3d
00000270: 22c8 9a3d f70e 16bf 99c0 163f f96a 52b4
00000280: 5c95 abbe 6cbc 86b5 beb7 85b5 9195 0535
00000290: 2bfc 603e 3a39 47be 3409 143e b21e c63e
000002a0: 0f41 1cbe 1b1e 54be 095b 28be 873d 323e
000002b0: 8ea5 723e 5967 c03d 2a50 6ebe 28da 1abf
000002c0: a6cb 86be c8a2 323e b86a 62bd aa46 70bd
000002d0: fff2 18bd e226 943e 14cf 123f 6bf1 323f
000002e0: 979a 94be a6cf 6d3e 74a3 df3f 5d15 353f
000002f0: 9ca5 0a3e 2156 c63d 0e68 b7be 1be3 21be
00000300: 5204 8c35 6ea5 9cbe e744 91b5 4864 9335
00000310: b12f bfb4 9a5d 8bbd 3b07 143f 86d0 0d3f
00000320: c70e 13bf d365 b0be 61ee 233f 2454 2d3e
00000330: a97c 08be 9bbb 90be b9ff 80be 72c5 af3e
00000340: 0645 a83d 62c1 363e 3b55 d53e daae 67be
00000350: 812e d1be 9b86 233f 2d14 1a3c b92f b9be
00000360: 798b 48be df51 bdbe 15a2 95be d762 3bbe
00000370: 6478 30be 3a6d 85be 7852 143e 833f 403d
00000380: eb05 10be b781 8a35 cf7c 3d3e db66 5fb4
00000390: e2f6 dc34 5248 1635 7fa3 123e e03c 383d
000003a0: b1a7 3dbe 325b b93e d11f 0dbe 7faa 96be
000003b0: 20e1 b53c bc44 ed3c b581 28be 4183 06be
000003c0: 6e57 183c 3ab2 d2bc 8dbf b83d e1de 6b3d
000003d0: 7045 3c3e 2c8d a53c 427e 87be 069e 963d
000003e0: ce46 5f3d 6227 8fbd e3de 073e 6fbf 233e
000003f0: 9405 75be 25eb d1bd b2a2 8f3d 34e0 4a3c
-0.17218867 -0.43699905 0.061554346 0.32269996 -0.3318709 0.6085032 -0.3018849 0.034264136
-0.75344056 -0.28839117 0.44413355 0.24832214 -0.3963146 0.3358167 0.4094256 0.18659028
-0.6059511 0.07918682 0.6101179 -0.47229183 0.044051573 0.039502826 0.19548939 0.44630685
0.063630685 0.28112587 -0.13253245 -6.057474e-07 0.19366567 -5.0236747e-07 -9.914855e-07 -9.4504713e-07
0.057421647 -0.2670502 -0.31554607 -0.22307225 0.23529044 -0.16242887 0.08401546 0.22003217
0.59578735 -0.49154687 -0.305119 -0.5077936 0.21523874 0.30983564 -0.06256651 0.09455901
0.53452426 0.2691096 -0.074202165 1.1097261 -0.12034158 0.17493626 -0.20033604 -0.16783911
0.1959833 -0.13476013 -0.03358471 0.29909867 6.806692e-08 -0.64755666 5.533321e-07 -2.4974656e-07
-8.600779e-08 0.045506008 0.20724812 0.19423066 -0.028195426 -0.09821789 0.01581329 -0.2378865
0.44845036 0.0179162 0.25424382 -0.5110007 0.03730171 0.07952435 -0.04328693 0.14043933
-0.07330006 0.2244615 -0.08870134 -0.34066382 0.1365835 -0.24397126 0.11533863 0.2107745
0.089528605 -0.2700599 -0.05030163 -0.5044026 -0.4567833 -2.4970444e-07 -0.78289884 -8.047892e-07
6.662683e-08 -9.656258e-07 -0.72465676 -0.36692053 0.09662075 0.8759881 -0.60679215 0.19522333
-0.24941614 0.5632183 -0.21575333 0.079163246 0.044004854 0.13300997 -0.27850148 0.5742625
0.35780933 -0.021661758 0.17663236 0.22453246 -0.09329589 -0.22023438 0.17903629 0.37285408
0.095243126 0.43843162 -0.058507625 0.7370001 0.19788587 0.19883966 -9.4958074e-07 -0.25595316
-2.3470189e-07 -3.9369195e-07 -2.1223946e-07 -0.069249265 -0.16782603 -0.53307873 -0.25334513 -0.3287642
0.2095088 0.097769886 -0.34224075 0.7510207 -0.3108996 -0.5779676 -0.2350093 -0.75848335
-0.40444037 -0.22268996 0.5653818 0.30497766 0.022483014 -0.26413658 -0.031956665 0.042534363
-0.08635603 0.39021727 -0.04036574 0.11537324 0.075577036 -0.58616585 0.5888763 -1.959669e-07
-0.3351239 -1.0038616e-06 -9.962748e-07 4.976401e-07 0.21971194 -0.19455424 0.14456636 0.38695294
-0.15259193 -0.2071461 -0.16440977 0.17406283 0.23695967 0.09394712 -0.23272768 -0.6048913
-0.26327246 0.17444909 -0.055277556 -0.05866114 -0.037341114 0.28935915 0.57347226 0.69899625
-0.29024193 0.23223743 1.7471757 0.7073572 0.13539737 0.096843965 -0.35821575 -0.1580929
1.043207e-06 -0.30594963 -1.0823395e-06 1.0981539e-06 -3.5611222e-07 -0.068049625 0.5782353 0.55396307
-0.57444423 -0.34452686 0.6403561 0.16926628 -0.13328804 -0.28268132 -0.251951 0.34330326
0.0821629 0.17847207 0.41666588 -0.22625294 -0.40855792 0.63877267 0.009404224 -0.36169222
-0.19584455 -0.36976525 -0.2922522 -0.18299423 -0.17233425 -0.26059896 0.14484584 0.04693557
-0.14064758 1.0319553e-06 0.18504642 -2.0805912e-07 4.1157824e-07 5.5984594e-07 0.14320181 0.04497993
-0.18521 0.3620239 -0.13781668 -0.29426953 0.022202075 0.02896344 -0.1645573 -0.13136007
0.009298189 -0.02571975 0.090209104 0.0575856 0.18385863 0.020208918 -0.26463515 0.07354359
0.054510884 -0.069899336 0.13268618 0.15990995 -0.23927909 -0.102499284 0.070134535 0.012382556

fcs1.bias f4 [256]
00000000: be7b 4538 417e b0b8 5fa2 0638 b4ca 9bb6
00000010: d482 92b8 f11f 4ab8 bf78 7539 81ca 2c39
00000020: a545 62b9 65d5 5a39 9a53 2fb9 9dae 4039
00000030: 5956 d6b8 4c26 81b9 156d beb7 1954 0936
00000040: e880 c0b8 e84f 46b9 4ddd 9539 52f8 4139
00000050: e3c8 9a39 cdbe 0e3a ce13 17b9 295b 8b39
00000060: c1d0 3939 e549 7539 d314 3839 1ee8 7ab9
00000070: 40c4 c0b8 1655 11b9 f816 36b7 5d2b 1fb9
00000080: 0d33 6f39 a6e3 1339 649b 03b8 047b 74b8
00000090: d229 16b9 97c9 2fb9 fc45 8bb9 4a60 5c38
000000a0: 6f9d ec39 4e78 93b7 b7b4 96b9 5a80 2239
000000b0: 02a6 6b39 9734 1f39 6555 9b39 245f d939
000000c0: d8d7 c238 2190 3fb9 c7b7 7437 badf a239
000000d0: f0ea 8438 e4b6 3d39 946d cc39 f2b9 a9b8
000000e0: 91af 8eb9 417b 69b9 0309 26b9 8981 9c38
000000f0: d5fd 93b9 7bb3 bcb8 93e5 1c39 931b 6738
00000100: d39c 8039 5db3 e339 5a36 ea35 b3b4 19b8
00000110: 9c01 c338 93d8 aa39 c8dc bbb9 5ea4 8037
00000120: e8fe 55b9 39d5 8fb9 83f4 b2b9 d56b 79b9
00000130: c1eb 3639 796d 44b9 1261 62b5 297b 033a
00000140: 60f9 08b9 e3dd b539 53a2 1fb9 d32e ecb5
00000150: 1906 4d39 0529 1e3a 9d85 c139 2ef4 ddb9
00000160: 1aba a039 886e e639 8986 a139 8c21 a9b8
00000170: 4635 52b9 6209 6cb9 e323 ceb8 d8e2 bfb8
00000180: 96c4 2239 148f a9b9 5422 20ba e5d1 08b9
00000190: ab92 cd39 5807 1ab9 4baf 6839 6215 e438
000001a0: 4e39 6739 7069 48ba 0d8e d5b9 8ce0 2539
000001b0: b18d 0539 19cd 99b9 6661 ceba c36e dc3a
000001c0: d1ff ba38 6357 61b9 2aa3 20b7 4709 a6b8
000001d0: b58d 0039 5371 a339 cb2f 5db8 8f11 f338
000001e0: 1537 d138 5c20 dab6 2028 7d39 0f3f d3b9
000001f0: c37a 05b9 6b62 f8b8 b130 c638 4b74 c4b8
00000200: f15f 5039 20f2 03b9 7cab 9b38 78d1 b939
00000210: 1637 5db9 7fc8 76b9 b07f b9b9 d05e dd39
00000220: b571 69b9 5985 6c39 2bf5 aa39 246d 9d39
00000230: e1ab 9439 f6dd e638 4c32 df38 ffe8 5739
00000240: e102 90b8 3747 3738 f8a3 56b8 7fe8 87b8
00000250: ea76 57b9 6458 d839 8574 9db9 5d7b 4039
00000260: 7d12 9f39 6610 08b9 eb9f f538 b15b 4039
00000270: 6477 85b9 300f 1db9 4cb6 24b9 a0f0 3b39
00000280: 4a43 2cb9 1a10 eab8 9a78 6e39 51e9 8239
00000290: 8e50 6639 a2c3 5738 949a 26b8 4290 17b7
000002a0: 3eb0 1936 ea76 3638 2545 b5b7 0e1c 0039
000002b0: b82a 323a 16f7 b738 4743 fa38 ed7d 9a39
000002c0: 26b0 60b9 419c 0c38 dfed aa38 63e7 1439
000002d0: 7930 3138 21a9 f938 6404 43b9 51d1 6cb8
000002e0: cb3f 8039 412c ef39 f6c9 afb9 5e9c 1539
000002f0: bd02 46b9 25c3 f2b5 b540 84b8 ca12 09b9
00000300: bf95 dbb8 f300 84b9 6aa4 3639 83e7 8eb9
00000310: 1f8d 74b9 879a 9ab9 66df 7937 0ba2 7238
00000320: ba88 04b8 f54a e338 e854 e6b7 a6eb 0db8
00000330: e51b bbb8 fc73 d139 4d40 17b6 a9f0 3439
00000340: 6e93 6e39 29bf 373a 2722 5bb8 81d6 0539
00000350: 4f8e bbb9 e6fb aeb8 410b 5d3a c1f1 3239
00000360: 7a91 ffb8 768c 7eb9 3ee2 a639 b125 89b9
00000370: f7a6 3b39 c6ed 2d34 77cb 8a39 b0a2 0738
00000380: 7f9a 1cb9 7c2e 39b9 21b8 f238 028b 5d39
00000390: cb93 9739 01b3 07b9 1457 a1b9 f28d 78b9
000003a0: 8a6d 8e38 0f9c 4039 e663 0fb9 bb57 b238
000003b0: a268 9138 fa4a c838 bee7 9fb9 59e1 4138
000003c0: 0ed2 3339 4918 183a 2e95 ab38 fd0e 40b8
000003d0: 942d 3938 1614 d439 a79c 84b9 a959 14b6
000003e0: ba43 9fb9 c3e4 b5b8 eae4 2b39 706f 93b9
000003f0: 56fc b9b9 0046 d1b8 298c c1b8 d4bb 5939
4.7083704e-05 -8.4158506e-05 3.209931e-05 -4.6429577e-06 -6.986191e-05 -4.81903e-05 0.00023410002 0.00016478637
-0.00021578984 0.00020869596 -0.00016720445 0.00018375595 -0.00010220399 -0.0002463333 -2.270056e-05 2.0463542e-06
-9.179284e-05 -0.00018912519 0.00028584377 0.00018498421 0.0002952284 0.00054453016 -0.0001440786 0.00026580066
0.00017720742 0.00023392549 0.00017555365 -0.00023928328 -9.191828e-05 -0.00013859975 -1.0853393e-05 -0.00015179576
0.00022811834 0.00014103818 -3.1377553e-05 -5.82887e-05 -0.00014320694 -0.00016764399 -0.00026564288 5.2541764e-05
0.00045130725 -1.7579787e-05 -0.00028744873 0.00015497339 0.00022473189 0.00015183013 0.00029627528 0.0004146035
9.290845e-05 -0.00018268872 1.4586322e-05 0.00031065737 6.338011e-05 0.00018092577 0.00038991554 -8.093183e-05
-0.00027215158 -0.00022266527 -0.00015834351 7.4627875e-05 -0.00028227145 -8.9979694e-05 0.00014962842 5.5100372e-05
0.00024530906 0.0004343045 1.7450177e-06 -3.6646332e-05 9.298624e-05 0.00032586287 -0.00035831914 1.5335328e-05
-0.00020408223 -0.0002743395 -0.0003413298 -0.00023786661 0.00017444698 -0.00018732798 -8.4332817e-07 0.0005015606
-0.0001306287 0.0003468833 -0.00015223892 -1.7596998e-06 0.00019552595 0.0006033334 0.00036911378 -0.00042334333
0.00030656235 0.0004395137 0.0003080855 -8.0647966e-05 -0.00020047007 -0.00022510209 -9.82953e-05 -9.149843e-05
0.00015522758 -0.00032340793 -0.0006108631 -0.00013048163 0.00039209923 -0.0001468932 0.00022190546 0.0001087587
0.00022051224 -0.0007645106 -0.00040732362 0.00015819276 0.00012736653 -0.00029335244 -0.001574558 0.0016817678
8.916821e-05 -0.00021490226 -9.574733e-06 -7.917225e-05 0.00012259821 0.00031174216 -5.2735017e-05 0.000115904135
9.9761564e-05 -6.5006734e-06 0.00024142908 -0.00040292038 -0.000127296 -0.00011843893 9.450445e-05 -9.3676696e-05
0.00019872167 -0.00012583332 7.4229174e-05 0.00035442016 -0.00021096724 -0.00023535079 -0.00035381084 0.00042223046
-0.00022262971 0.0002255639 0.0003260759 0.0003002669 0.0002835682 0.00011008598 0.00010642837 0.00020590796
-6.866991e-05 4.3696924e-05 -5.1174284e-05 -6.4806074e-05 -0.00020548297 0.00041264587 -0.00030032187 0.00018356503
0.00030340618 -0.0001297608 0.000117122974 0.00018344705 -0.0002545669 -0.00014978345 -0.0001570817 0.0001792335
-0.00016428265 -0.00011160989 0.00022742376 0.00024969366 0.00021964518 5.144219e-05 -3.9721446e-05 -9.033889e-06
2.2901363e-06 4.350293e-05 -2.160908e-05 0.00012217482 0.0006796527 8.772143e-05 0.0001193346 0.0002946699
-0.00021427925 3.3524124e-05 8.1505386e-05 0.00014200578 4.2245232e-05 0.00011904748 -0.00018598285 -5.6461726e-05
0.00024461592 0.00045618604 -0.00033529074 0.00014267999 -0.00018883772 -1.80872e-06 -6.306303e-05 -0.00013072338
-0.00010470626 -0.0002517771 0.00017418122 -0.0002725684 -0.00023322225 -0.000294883 1.4893571e-05 5.784821e-05
-3.159859e-05 0.00010838165 -2.7457674e-05 -3.3836484e-05 -8.9220506e-05 0.00039950002 -2.2538181e-06 0.0001725579
0.0002275237 0.0007009381 -5.2245476e-05 0.00012763777 -0.00035773448 -8.343886e-05 0.0008432158 0.00017065463
-0.00012186445 -0.00024275653 0.0003183055 -0.0002615876 0.00017895909 1.6198382e-07 0.00026473004 3.2338023e-05
-0.00014934874 -0.00017660292 0.00011573756 0.00021127987 0.0002891108 -0.00012941287 -0.0003077319 -0.00023704002
6.791491e-05 0.00018368683 -0.00013674758 8.5040425e-05 6.933628e-05 9.550709e-05 -0.00030499505 4.6224657e-05
0.00017149022 0.00058019586 8.181702e-05 -4.5790326e-05 4.4149885e-05 0.00040450756 -0.00025293717 -2.2105908e-06
-0.00030377303 -8.673363e-05 0.00016393108 -0.00028121052 -0.00035473955 -9.978935e-05 -9.229064e-05 0.00020764704

bn1.weight f4 [256]
00000000: b246 003f 3816 213f a21e 2f3f 9df6 fc3e
00000010: a65d 063f 6d37 e63e bc9b e73e feec 8b3f
00000020: 901e bc3e 22a8 f93e 1018 143f 3abb 2d3f
00000030: 5b85 fa3e 0be8 033f fe92 043f ba5e 2f3f
00000040: 1c63 583f 9598 2f3f 8739 f23e 956b 2a3f
00000050: 5e4c 443f 854e 413f 0e2f 2f3f e7a1 303f
00000060: 5dfd 263f 487b 303f d399 903f efe4 153f
00000070: 345d 063f f426 da3e 58df 2e3f 59c3 4c3f
00000080: a2d8 533f 0fc7 113f 13df 4e3f 73cb 413f
00000090: 8419 033f bbfb 083f 33f2 253f 6ffc 213f
000000a0: 1245 443f 1b3f 143f 34ab 5a3f a3d0 333f
000000b0: 3a13 fb3e ccb3 263f c665 2a3f 64c0 f73e
000000c0: e019 6f3f d8de 1d3f 6614 0c3f b0c1 123f
000000d0: b8b1 593f 2673 3f3f ae0f 4c3f 04a8 3f3f
000000e0: de0e 723f 7088 153f d035 293f 53c2 143f
000000f0: 7ca0 313f e752 f23e 2846 dc3e 0502 f73e
00000100: 5885 293f 77c4 1d3f ce22 4232 6f54 2a3f
00000110: e17c b93e 0a42 5a3f 4482 453f a9e9 763f
00000120: 1ef8 053f c1b7 3e3f 9769 133f 0b9e c83e
00000130: 14f9 d33e b3ed 2e3f 1524 fe33 cb3d 313f
00000140: d7b3 353f 193b 483f 3565 4f3f ba69 bf33
00000150: 6bf8 273f 5d4e 413f 8625 2c3f 86f3 043f
00000160: a698 493f 9ee5 e13e d09a 1c3f 79c7 0e3f
00000170: f66d 233f c1ae 4e3f 6d4f 363f 3696 153f
00000180: 0510 0b3f 4b1e 293f 6d7b 3e3f dd06 013f
00000190: c3b7 243f 47f7 0e3f f13a be3e 8c84 323f
000001a0: 2093 373f 4c8d 0e3f c620 2f3f bbfc 513f
000001b0: 22f4 563f 7b74 3d3f 910d 423f 4765 733f
000001c0: 6c59 633f 2c9a 633f 70d0 2e3f 68d7 643f
000001d0: ad98 1a3f 6078 373f d09c 303f 3d09 2a3f
000001e0: 5d83 083f 3eec 1d3f af41 943f a80f 733f
000001f0: a753 023f 81b3 2f3f 8158 403f 68d9 433f
00000200: 7c20 3c3f a8f2 113f d535 273f 7e73 233f
00000210: 3d19 1b3f d83c f73e 2e03 533f a7bc 6f3f
00000220: 04cb 0c3f ff39 783f 817d e13e d013 f03e
00000230: 2031 443f 2fba 1f3f 2866 e93e 5264 533f
00000240: f250 0a3f b93f 3e3f 9b95 123f d7da d73e
00000250: 96c6 3a3f bbb2 bb3e 737c 203f ff49 1d3f
00000260: 38c5 4b3f 885b 1c3f 204b 163f bd97 6b3f
00000270: 68e0 453f 913c 173f 67ad 1c3f bbbd 013f
00000280: 6ef1 463f e7ac 193f a7f7 0e3f d5fc f13e
00000290: e200 2d3f 96a2 273f 94b1 0c3f 85eb 3b3f
000002a0: 1386 063f 6d4f 2b3f 566f eb3e 8145 233f
000002b0: 212f 1c3f a365 e73e 9779 893f b139 243f
000002c0: bdf5 003f 5053 123f f23a 2d3f 8702 313f
000002d0: c994 753f e4c3 5c3f 0b16 6e3f aa74 e43e
000002e0: 2e33 b63e e579 203f 99ca 343f 3c62 0c3f
000002f0: 967d 1d3f 97f7 123f f05f 183f 6300 173f
00000300: 3f35 313f 597c 3e3f be2d 073f 91a5 3a3f
00000310: a853 283f 2777 263f 57df 523f 112c 283f
00000320: 24e6 1c3f 3612 1c3f 7ff7 3b3f 90b8 2a3f
00000330: 7cfb db3e c753 3d3f 9679 243f f5fd 143f
00000340: aac1 0b3f b752 423f a7b1 473f 0330 173f
00000350: 7c7c 553f 27f8 2c3f c7cf 2a3f 6518 2e3f
00000360: f378 e03e 8f35 653f a66f 373f b31c 423f
00000370: 85d1 1b3f 9729 023f 0f68 263f be48 333f
00000380: d5ae 123f 4ae7 0d3f 1de5 0a3f 7d10 1d3f
00000390: 62f3 0c3f 9dd5 1e3f c563 d73e b668 0d3f
000003a0: 5c9a 0c3f c1b5 2d3f 5cb1 193f 8c9f 073f
000003b0: ddb6 1b3f 5a5c 2c3f cae6 253f e073 5f3f
000003c0: 5d11 ec3e 1b43 073f ce9d 4e3f b60e 0b3f
000003d0: 3c86 3a3f 9b99 1e3f 9658 3a3f e344 ac34
000003e0: c466 453f 4129 2e3f 9184 263f 0885 2a3f
000003f0: 96f7 433f b2ee 223f f663 363f fc7b 2c3f
0.5010787 0.6292453 0.68406117 0.494069 0.52486646 0.44964162 0.45236003 1.0931699
0.36742067 0.48761088 0.57849216 0.6786381 0.48929867 0.51525944 0.5178679 0.68503916
0.8452623 0.68592197 0.47309515 0.6657041 0.7667903 0.75510436 0.68431175 0.68997043
0.6523035 0.6893811 1.1296943 0.5855245 0.52485967 0.42607844 0.68309546 0.79985577
0.8275243 0.56944364 0.80809134 0.75701064 0.5121081 0.5350911 0.6482269 0.6327581
0.7666789 0.5790879 0.85417485 0.7024023 0.49038106 0.651181 0.66561544 0.4838897
0.9339886 0.6166816 0.54718626 0.57326794 0.850368 0.7478508 0.79711425 0.74865746
0.94553936 0.5841131 0.66097736 0.58109015 0.69385505 0.47328874 0.43022275 0.48243728
0.6621909 0.61627907 1.13002e-08 0.66535085 0.36228088 0.8525702 0.77151895 0.9645029
0.5233172 0.74499136 0.5758299 0.39183077 0.4140097 0.6833145 1.183436e-07 0.69234914
0.7097754 0.78215176 0.81013805 8.913362e-08 0.6561343 0.755102 0.67244756 0.5193409
0.7874855 0.44120497 0.61173725 0.5577312 0.6383966 0.80735403 0.71214944 0.5843233
0.5432132 0.6606185 0.7440708 0.504011 0.643429 0.55846065 0.37154344 0.697335
0.7170887 0.5568435 0.68409383 0.8202626 0.8396627 0.7400586 0.7580195 0.9507641
0.8880832 0.8890712 0.682868 0.89391184 0.60389215 0.7166805 0.68989277 0.66420346
0.53325444 0.616886 1.1582545 0.94945765 0.50908893 0.68633276 0.75135046 0.7650361
0.7348707 0.5701089 0.65316516 0.638481 0.60585386 0.48288608 0.82426727 0.93647236
0.5499728 0.96963495 0.44041064 0.46890116 0.7663746 0.6239347 0.45585752 0.8257495
0.5402976 0.74315983 0.5725953 0.4215915 0.7295927 0.36659798 0.62689894 0.61441034
0.79597807 0.61077166 0.5870838 0.9202841 0.7729554 0.5907679 0.6120209 0.5068013
0.7771214 0.60029453 0.5584664 0.47263208 0.6757947 0.6548246 0.5495846 0.7340625
0.5254833 0.6691807 0.4598338 0.6377793 0.61009413 0.4519473 1.0740231 0.6415053
0.50374967 0.57158375 0.6766807 0.6914448 0.95930153 0.86236405 0.93002385 0.44620258
0.35585922 0.62685996 0.7062164 0.54837394 0.61519754 0.5740904 0.5952139 0.58984965
0.6922187 0.7440849 0.5280417 0.72908884 0.6575265 0.6502556 0.8237204 0.6569224
0.61288667 0.6096529 0.73424524 0.6668787 0.42965305 0.7395596 0.64248025 0.5820001
0.5459238 0.7590746 0.7800545 0.59057635 0.83393073 0.6756615 0.66723293 0.68005973
0.43842277 0.8953485 0.71654737 0.7582504 0.60866576 0.5084471 0.6500253 0.7003287
0.5729802 0.55431044 0.5425585 0.61353284 0.5505887 0.620447 0.42068306 0.552379
0.54923034 0.6785546 0.60036254 0.52977824 0.608259 0.6732842 0.6480528 0.87286186
0.46106997 0.5283677 0.8070954 0.5431932 0.72861075 0.61953133 0.7279142 3.2087618e-07
0.7710993 0.680317 0.6504603 0.6660924 0.7654966 0.6364547 0.7124628 0.67376685

bn1.bias f4 [256]
00000000: f72a c3bc c7b2 7ebe 301c 28be fc47 d8be
00000010: adaa 2bbe 1fd2 c5be 96a5 e9be ae1d 39bf
00000020: d4c6 0dbe 5ce1 efbd 6046 3cbf 1e7f 4bbe
00000030: 9704 9fbe 2a92 adbe b39d b8be 3989 abbe
00000040: 0da0 9ebe 4710 edbe 2d64 efbe 89ef 7cbe
00000050: fcd0 7dbe ea2a 00bf 6391 09bf a069 c9be
00000060: 24e1 ecbe 3a12 e2be 3be4 07bf ee8b 38be
00000070: 855b 67be ae1d b1be dbc5 28bf f0f1 6bbc
00000080: 7e7d 44bf 59f4 57bd 8b0a 16bf 42c2 26be
00000090: 4e18 20bf 64e6 c2be 0624 acbe b42f aebe
000000a0: b7e5 13bf c10c 94bd ed03 3abf fb3a b5be
000000b0: 3c7b db3b 6cbe e2be 1e8a b8be 9972 eabe
000000c0: e0e4 bfbd e4f9 18bf 2d4c 24bf 54c8 fabe
000000d0: d5d2 d7be 31f2 67be 26cc d9be 2611 c3be
000000e0: 1bad 90bd ebe4 d7be 2565 01bf 3cdb 44bf
000000f0: 5108 2ebf a474 0cbf 8d2c 8cbe effb 94be
00000100: 4e2a 45be 2b5f 14bf 306a 9eb3 633e 09bf
00000110: 1a63 a0be ee15 a5be b756 423d d386 4fbf
00000120: 59d1 25bf 4d3c e2be a604 a4be f8c3 8cbd
00000130: c5d8 0abe e365 4fbe deea 64b5 e37d 1fbf
00000140: bddb 26bf 3f1d 16bf 9f2c 34bf 9637 d8b4
00000150: 73d5 b7be b26d cebe 6f9f 5dbf 0cac a0bd
00000160: fdd4 34bf 7ec1 33bf 9ada 49bd 1ffd a0be
00000170: f7f1 27be b573 1dbf 23df 30bf 0160 eebe
00000180: 89e1 6ebe 267f 0cbf ae6d 07bf d5ae dbbe
00000190: 4cf2 0fbf 726a 1ebf 12de 41be 9600 3dbf
000001a0: 5956 0dbf 26bf 4c3e e7e1 96be 4784 0bbf
000001b0: 0fe0 80be 1f3b 20bf ce03 713d f9b0 b03d
000001c0: 24df 04bf 556c 88bc 7dd1 11bf 8f0c 2fbf
000001d0: e8c0 87be defe 21bf 3ce7 87bd 0357 14be
000001e0: 3373 1abf 2f4d a8be 5b98 72bf 8525 cabe
000001f0: d569 d7be cc7e 14bf c773 32bf 33b7 71bd
00000200: c499 06bf 7742 bcbe d423 23bf 22ea aebe
00000210: 958f 17bf 8c0b cabd 1904 3abf 2cea b0be
00000220: 053d aebe 75f2 50bf 5ae4 6cbe da0a 4ebe
00000230: 820d 51be 1646 ecbe be04 22bd 50d4 5cbf
00000240: 74e0 88be 637f 50be 4929 adbe 1b7e 1ebe
00000250: fb90 03bf b0ce afbe 09b8 02bf f90d 09bf
00000260: 694c 02bf 3959 e0be f048 13be 7cae 45bf
00000270: ffb4 babe 4e14 a8be 35c0 fcbc e733 43bf
00000280: e4b3 e3be 01b1 13bf c245 10bf a92c bbbd
00000290: ccd1 0abf be65 01bf a829 cbbe 6e79 f4be
000002a0: de64 3ebf 7629 cebe 0440 19be 8384 bcbe
000002b0: 4fce 84be 727d 86be 4517 1cbf 9bf4 9dbe
000002c0: 2298 ed3c 87b2 d5bd 327c 9bbe eb49 a1be
000002d0: 4f08 b3be 2b49 dfbe 30ac 26bf 6698 78bd
000002e0: 9039 7ebe 0c9f c7be cdb5 d7bd f029 4bbe
000002f0: 0542 20bf 3f61 e4be 2d41 b7be f7ce 1ebd
00000300: ef2e 43bf 0799 c7be 44f8 99bd 4dc4 33be
00000310: 7718 97be 6787 37bf aebe 28bf 0ca4 19bf
00000320: 9a2f b8be 2cb7 f0be 7917 f0be 8fde eebe
00000330: c45a e6bd 5b10 68be be59 d2be 7c5a ddbe
00000340: 46b3 febd 98c0 1cbe 7e6e f0bc d47a aabe
00000350: c1a2 a0be 5468 29bf d5f2 ffbe 28b8 26bf
00000360: aa48 23be 59ee 0dbf c00c 3dbf c356 86be
00000370: bbf5 81be b713 c6be 1782 7c3d d3e4 a8be
00000380: daf8 b9be 3853 f4be 85c8 56be 27cc abbe
00000390: 36ce 20bf 7cf4 1cbf 3973 64be 1b06 d4be
000003a0: 9ebc 16bf 8d11 0ebf 6a3a e6bd 533c abbe
000003b0: d2e7 e5bc d191 33be 1355 cbbe 7c08 65bf
000003c0: 3cc7 0fbf f65f 89be 47e1 05bf 88f4 cbbe
000003d0: dedb b3be 4cd0 2abf 6473 0fbf db03 c9b5
000003e0: 4bf1 01bf 772d a9be bd8c adbe c377 25bf
000003f0: 0c22 e2be 8094 28bf a043 29bf 68fa d8be
-0.023824198 -0.24872886 -0.16417003 -0.4224242 -0.16764326 -0.38636872 -0.45634145 -0.7231091
-0.13845378 -0.11712906 -0.73544884 -0.1987271 -0.3105819 -0.33900577 -0.36057815 -0.3350313
-0.30981484 -0.4630148 -0.46756116 -0.2470075 -0.24786752 -0.5006548 -0.5373747 -0.39338398
-0.4626552 -0.4415453 -0.5308263 -0.18022129 -0.22593506 -0.34592956 -0.65926903 -0.014400944
-0.76753986 -0.052723262 -0.5860984 -0.16285041 -0.62537086 -0.380664 -0.33621234 -0.3402077
-0.5777239 -0.07228995 -0.7266224 -0.3539656 0.0066980403 -0.44285905 -0.36042875 -0.45790556
-0.09369826 -0.597563 -0.64178735 -0.48980963 -0.4215304 -0.22650982 -0.42538565 -0.3809902
-0.07064267 -0.42166838 -0.5054496 -0.76897025 -0.6798144 -0.5486548 -0.2737774 -0.2909846
-0.19254419 -0.57957715 -7.376764e-08 -0.5361082 -0.31325608 -0.32243294 0.04744598 -0.810651
-0.64772564 -0.4418663 -0.32034796 -0.068733156 -0.13559254 -0.2025371 -8.5278396e-07 -0.6230146
-0.65179044 -0.58638376 -0.70380586 -4.027358e-07 -0.35905036 -0.40318066 -0.865714 -0.07845315
-0.70637494 -0.7021712 -0.04928074 -0.31443116 -0.16400896 -0.6150468 -0.6909048 -0.4655762
-0.23328222 -0.54881513 -0.5290173 -0.42906824 -0.5622909 -0.6188117 -0.1893237 -0.7382902
-0.5520988 0.19994792 -0.29469225 -0.54498714 -0.25170943 -0.6259021 0.05884152 0.08627505
-0.51902986 -0.01665322 -0.5696028 -0.6837854 -0.26514363 -0.6327952 -0.06635901 -0.14486317
-0.6033203 -0.32871386 -0.94763726 -0.3948175 -0.4207293 -0.58005977 -0.6970791 -0.059012603
-0.5257838 -0.3676946 -0.63726544 -0.34163004 -0.59203464 -0.09865484 -0.726625 -0.3455366
-0.3403093 -0.8161996 -0.23133984 -0.20121327 -0.20415309 -0.4614722 -0.039555304 -0.86261463
-0.26733744 -0.20361094 -0.3382056 -0.15477793 -0.513931 -0.34337378 -0.51062065 -0.53536946
-0.5089784 -0.4381807 -0.14383292 -0.7721937 -0.36466214 -0.3282799 -0.03085337 -0.7625107
-0.44473183 -0.5769196 -0.5635644 -0.091393776 -0.54226375 -0.5054587 -0.3968022 -0.47748893
-0.7437266 -0.40266007 -0.14965826 -0.36819848 -0.2593865 -0.26267582 -0.60973006 -0.30850682
0.029003207 -0.10434442 -0.3036819 -0.31501707 -0.34967276 -0.4361051 -0.6510649 -0.060692213
-0.24826646 -0.3898853 -0.105327226 -0.19840217 -0.6260074 -0.44605443 -0.35791913 -0.038771596
-0.7624349 -0.38983938 -0.07518056 -0.17555352 -0.29510853 -0.7169098 -0.65915954 -0.6001594
-0.35973817 -0.4701475 -0.46892908 -0.46654174 -0.11247781 -0.22662489 -0.41084093 -0.43233097
-0.124365374 -0.15307844 -0.029349562 -0.33296835 -0.3137417 -0.6617482 -0.49989954 -0.6512475
-0.15945688 -0.55441815 -0.7384758 -0.2623807 -0.2538279 -0.38686916 0.0616475 -0.3298708
-0.3632267 -0.4771974 -0.2097493 -0.33554193 -0.6281465 -0.61310554 -0.22309579 -0.41410908
-0.58881557 -0.5549553 -0.1124161 -0.3344446 -0.028064642 -0.17536093 -0.39713344 -0.8946607
-0.5616338 -0.26831025 -0.5229687 -0.39835 -0.35128683 -0.66724086 -0.5603545 -1.4976789e-06
-0.5075881 -0.330425 -0.33896437 -0.64635867 -0.441666 -0.65851593 -0.6611881 -0.42378545

bn1.running_mean f4 [256]
00000000: f5d5 813b ed1d 1fba a540 803b edd8 9f3a
00000010: 2c61 1abc 5f15 e93b 7295 4a3b 36aa c83b
00000020: 8c8d 183b 2aae d83a 0372 da3a c194 383b
00000030: 1e12 7a3b 75b8 193b 44b3 843c deb1 a0bb
00000040: 61f9 dbbb 9cf1 543b f7a4 643b e207 353c
00000050: 030b e23b 8379 173c 2885 3f3a a767 e5bb
00000060: a024 0fba d218 3fbc a077 333b d4ed 583c
00000070: b6c0 c0bb e2fa 9cbb 0bfb 473b 55f1 20bc
00000080: 8f86 aa3b bc25 c6bb ed06 b6ba 70ac 783a
00000090: 2379 19bb c828 f4ba f8f7 75bb 95eb 263a
000000a0: ef2d b1ba c466 8bbb 4bb8 6538 7699 31bb
000000b0: 0a8a dbba 8deb 243c 9a6f 25bb ce80 ff3b
000000c0: 4fb9 093a 2bc2 093b 73fa a23b 207a 3b3b
000000d0: f3ee 2f3b e27b ba3b fe5b 1a3c 6480 a03b
000000e0: 01e5 613b 8d68 8fbb 76f1 5b3c f50f 503b
000000f0: 2617 eaba 9c18 36bb 5680 173c 2996 053c
00000100: 8049 3f3b 51cb 68bc 2b92 eb35 a85a d1b9
00000110: 2390 bbbb 5f2c 3a3c a294 9cbb 4e86 25bb
00000120: 0fae 023c 84d0 7d3a a4e3 9dbb 3de4 c6bb
00000130: 19ba 01bc 506d c5bb 5ba7 5eb5 a213 513b
00000140: f485 1fbb f71b 1dbc e0fc 37bb 3927 edb5
00000150: ddb5 8dbb ea76 23bb 5c15 0e3c d387 673b
00000160: b0c7 e23b 9e27 173b 1e21 06bc e77d 4f3b
00000170: 51c0 03ba 65a8 0e3b e4c8 003c 7ea2 a8ba
00000180: 1a21 91bb 4e93 4dbc 9a85 f7bb a879 313a
00000190: 5723 203b 438c d33b aa76 c1bb 92f0 283c
000001a0: f8aa 28bc dfe5 12bc 8225 4abc 0ffb 41bc
000001b0: bce8 3bbb 9e06 e3bb f57d bf3b 0d9d ea39
000001c0: f45a 7f3b e137 11bc 561c 5dbb 3e63 2dbb
000001d0: 971d 683b 8a8d c0bb 2409 10bc 8c8b 413b
000001e0: 9432 283c 6b20 c23b 4e0b 013c 294e 2ebc
000001f0: f201 853b 3085 003b 5b46 8b3b 7dc0 0ebc
00000200: 7f8b 283b 57a4 ec3b 3597 743b 8474 38bb
00000210: 0af7 e83b 9d18 533b a635 92ba b5f9 31bb
00000220: f4c8 c9b9 c4bb 59bb 47f2 15bc f7b1 8438
00000230: 205d 38ba d634 e93a b268 31bc e607 da3a
00000240: f9da 3b3a 6a31 d33a 8860 0d3c 50c9 0a3c
00000250: 8434 eabb d673 c43b 963c 06bb 055b 5b3b
00000260: 47cf c93b 185e 98ba b99c 71bb 7fbb 033c
00000270: 22bc 6a39 a566 a73b 5f7d 31ba e21a e03b
00000280: 9d68 b23b 9b2b 1f3b a618 303c c437 babb
00000290: 3e14 1bbb b269 e23a aedd 053b 9415 aaba
000002a0: 659b 083c 046c 8fbb 61bb 74ba a016 4cbb
000002b0: 3916 0f3b f01a b73a 8a12 e139 52f7 d4bb
000002c0: 74da b9bb c36f 36bb 75e2 58bb 1123 01bb
000002d0: d187 1cbc 9425 be3b 3c6d 58bb abb8 f53a
000002e0: cb35 af3b d835 7fbb 55c3 8e3b 0b87 02bc
000002f0: 1d1d 74bb cbc6 6fba ecf1 80bb 40ff 08bc
00000300: bb43 df39 36e7 e53b ed58 7f3b c2f0 99bb
00000310: 76b6 b5bb 0b3e 823b c6d6 233c bc2b 7a3c
00000320: 0b59 1bbb 2573 5fba 68d4 21bb e88a 23bb
00000330: 4376 a3bb 8249 9abb cd0f f13b 65cc 4fbb
00000340: 953d e6bb cc62 073c 669f 933b dac6 973b
00000350: 00e0 c5bb eab6 b8ba 1c00 51bb 25a8 9eba
00000360: 8cb3 cbba b362 bbbb b657 3438 395e 67bc
00000370: 3ada 473b e9c1 5c3b d69a 53bb 82e8 a23a
00000380: 88e7 15ba 2254 8cba 6e71 48bb 94a1 d9ba
00000390: d553 0cbb 74d6 a6ba 063c b83b 85a9 313a
000003a0: 3fb4 c73a 6064 99bb 2564 8bbb aabb e4b9
000003b0: 9c4a 173b b7fe 0c3c 4f53 91b9 b93d 97bb
000003c0: ae2f b5ba 79f0 d4b8 6335 31bb 0fb2 87bb
000003d0: 5174 a8bb 601a 193c 7b6a 143a 178e 15b6
000003e0: 962e 913b 1afb fa3a b288 063c ef96 3a3b
000003f0: 4729 193a f4fb dfbb 01f3 ffbb 4d75 46bc
0.0039622732 -0.0006069828 0.003913956 0.0012195386 -0.009422582 0.0071131433 0.003091183 0.0061238063
0.0023277728 0.0016531397 0.0016666058 0.0028164836 0.0038157771 0.0023455892 0.016198762 -0.004904016
-0.006713078 0.0032492643 0.0034888366 0.011049243 0.0068982854 0.009245279 0.00073059136 -0.0070008817
-0.00054604746 -0.0116636325 0.0027384534 0.013240296 -0.005882348 -0.0047906497 0.0030514624 -0.009823163
0.005204029 -0.0060469788 -0.0013887562 0.00094861444 -0.002341815 -0.0018627876 -0.0037531834 0.0006367502
-0.0013517718 -0.004254194 5.476949e-05 -0.0027099526 -0.0016749513 0.010065925 -0.0025243522 0.007797337
0.00052537484 0.0021020274 0.0049737035 0.0028606728 0.0026845306 0.0056910375 0.009421347 0.004898118
0.0034468772 -0.004376477 0.013424268 0.0031747792 -0.0017859682 -0.0027785664 0.009246906 0.008153477
0.0029188097 -0.014208631 1.7551405e-06 -0.0003993113 -0.0057239695 0.011363118 -0.0047784606 -0.0025257054
0.007976069 0.00096822553 -0.0048183966 -0.0060696886 -0.007917904 -0.006024994 -8.294498e-07 0.0031902571
-0.0024341317 -0.009589187 -0.002807431 -1.7669291e-06 -0.0043246583 -0.0024942704 0.008672085 0.003532876
0.0069207773 0.0023064385 -0.008186607 0.0031660737 -0.0005025911 0.0021767851 0.007860396 -0.0012865809
-0.004428995 -0.012547327 -0.0075537683 0.00067701424 0.0024435127 0.0064559295 -0.0059040384 0.010311263
-0.010294668 -0.008965938 -0.012338044 -0.011839642 -0.0028672656 -0.006928279 0.0058438727 0.0004474897
0.0038964124 -0.00886342 -0.0033738813 -0.0026456858 0.0035418028 -0.005876248 -0.008791242 0.002953264
0.010265965 0.0059242747 0.00787623 -0.010638752 0.00405907 0.0019610636 0.0042503304 -0.008712885
0.0025717912 0.0072217393 0.0037321572 -0.002814562 0.0071095275 0.0032210716 -0.0011154904 -0.0027156894
-0.0003848743 -0.003322349 -0.009152002 6.327399e-05 -0.00070329197 0.0017792236 -0.010828184 0.0016634434
0.00071661134 0.0016112749 0.008628972 0.008470848 -0.0071473736 0.005995254 -0.002048289 0.0033471
0.0061587426 -0.0011624722 -0.0036867096 0.008040308 0.00022386064 0.0051086717 -0.0006770696 0.006839142
0.0054446 0.0024287465 0.010748064 -0.0056829173 -0.0023663188 0.0017273931 0.002042632 -0.0012976401
0.00833783 -0.00437689 -0.0009335783 -0.0031141415 0.0021833314 0.001396982 0.00042929157 -0.0064992094
-0.0056717936 -0.0027837611 -0.0033093963 -0.001970474 -0.0095538655 0.0058028195 -0.0033024093 0.0018747052
0.005346989 -0.0038942005 0.0043567815 -0.007966767 -0.0037248798 -0.0009146749 -0.0039350893 -0.008361638
0.00042584338 0.007016088 0.0038962916 -0.00469789 -0.0055454327 0.0039746813 0.009999936 0.015269216
-0.0023704197 -0.0008523933 -0.0024693254 -0.002495462 -0.004988463 -0.00470847 0.00735662 -0.0031707522
-0.007026384 0.008263301 0.0045050858 0.0046318593 -0.006038666 -0.0014092599 -0.0031890934 -0.0012104554
-0.001554118 -0.005718553 4.299703e-05 -0.0141215855 0.0030495063 0.0033684915 -0.0032288334 0.0012428912
-0.00057184 -0.0010706226 -0.0030585187 -0.001660394 -0.0021412272 -0.0012728707 0.0056223897 0.00067772745
0.0015236213 -0.004681155 -0.0042538815 -0.0004362737 0.0023085242 0.008605651 -0.00027718625 -0.004615512
-0.0013823414 -0.00010153739 -0.0027039878 -0.0041410993 -0.005140819 0.009344667 0.0005661619 -2.2285437e-06
0.0044306023 0.001914832 0.008211302 0.002847131 0.00058426376 -0.006835455 -0.0078109507 -0.012112928

bn1.running_var f4 [256]
00000000: 2e88 1d3f 6bf5 153f 230f 9b3f 4662 5f3f
00000010: 1482 1c3f 412d ed3e 56e6 173f 50de 0540
00000020: 0cea 1d3f e641 003f 2035 313f 590d ba3f
00000030: 0a34 083f a08d 363f 0aca 423f 7e63 363f
00000040: 30ca 9b3f 5c80 393f cca3 083f 19dd 693f
00000050: e267 df3f 15d7 4a3f e559 b73e 6e46 c33f
00000060: 776c 723f 5abb 1b3f e57d f13f 69f8 6b3f
00000070: 84b1 ec3e 620f ae3e ddb6 2b3f dfac 3c3f
00000080: 2bf8 ce3f 7c21 5c3f 1226 663f 4df6 1d3f
00000090: 82b9 033f ad12 3a3f 97d8 393f 3e22 193f
000000a0: 4395 923f 8264 343f fa15 8d3f c500 5a3f
000000b0: 236e 2b3f 8a76 643f 427e 3d3f 3a57 1f3f
000000c0: 8efb fe3f de52 e43e a3c8 f43e 3ee1 493f
000000d0: 801c 653f 760f cb3f 83cd a93f 2928 d03e
000000e0: 7220 843f 2ec9 813f 953c 473f b64c e63e
000000f0: fd77 203f f06c ee3e 198e 1c3f 1a50 f33e
00000100: 469b dc3e a9a7 d33e 8c6a 792c 0c03 203f
00000110: 2b57 873e 5916 ac3f 4b9d 5f3f 6d4e dd3f
00000120: ee56 d73e 5282 363f 6ddf 213f ffd5 8e3e
00000130: dd4d 483f ea64 133f 37a2 142c 4c43 c83e
00000140: e922 623f cef1 9b3f 4977 9d3f 734b 332d
00000150: 8776 813f 9f2d 253f c56a 1e3f bce1 273f
00000160: 0390 f53f d431 963e 9834 183f be75 623f
00000170: 1f4e 373f 8baa 0f3f c7a6 4a3f e69e 0b3f
00000180: fa59 023f bf17 443f 8234 643f 3f6b 1e3f
00000190: 0c83 173f 875f 0e3f 60e7 1e3f e2e2 9d3e
000001a0: aff4 423f 3a44 b53e 7033 4d3f f07b c63f
000001b0: 40f5 0940 aee1 743f 38e1 4e3e ef04 803e
000001c0: 0a71 b93f 32ca a43f a488 4f3f ad5a 9b3f
000001d0: 3814 873f 78b6 863f fcad 183f 46d8 773f
000001e0: c9aa ff3e 4eef 863f b797 f13f 0616 f13f
000001f0: 2f20 f33e 45c9 393f d432 d13f 6936 b73f
00000200: 5991 1c3f 8f36 423f edec ec3e db9e 2a3f
00000210: 9984 263f d844 283f 9cb8 9d3f 3a98 6a3f
00000220: 937c 473f 1db4 c83f 4349 273f ca07 113f
00000230: c992 6e3f 7150 483f 8b0e 023f 8c1f 4a3f
00000240: f7e4 463f e08d 323f 3dc1 883f a344 243f
00000250: 0761 883f 23d1 8c3e f0e6 a33f c0d8 1e3f
00000260: c923 6b3f 54b7 323f 6561 383f acd4 a23f
00000270: e515 5b3f e22c 5d3f b371 163f d29e 0b3f
00000280: 0d3c ab3f 9878 203f 96a7 133f 01d7 dc3e
00000290: 0809 883f e09a 8b3f efc9 873f d415 4e3f
000002a0: 2f44 e63e 2806 b13f 93d5 ed3e d8f6 6b3f
000002b0: 0d68 8a3e f86e 773e 32d8 c53f f4ab 043f
000002c0: 3cd8 2a3f 0eba c23e 0043 f73f 7b1a 4f3f
000002d0: f671 9f3f 7630 533f bf74 a83f 23a3 083f
000002e0: 4782 cd3e 5f89 2b3f 8a61 613f 4c01 3d3f
000002f0: 3d41 153f d116 433f d74b 273f 9067 403f
00000300: 8fab 273f 48ab 8c3f 35ff 0b3f 9f30 0a40
00000310: ecf8 4c3f 7fb8 183f 0184 a73f 6a37 253f
00000320: 4e76 233f 901d 703f 7ccf 623f e193 253f
00000330: bafa d73e f2a1 403f 320f 6f3f 0034 2a3f
00000340: 5d17 4a3f 8dc6 123f 199b 673e 5ff7 5b3f
00000350: 9d13 613f 2a8e 2b3f 4f1f 2b3f 0cd6 4f3f
00000360: 3e63 a43e ca35 913f 507d 683f a1d6 813f
00000370: a173 343f 9d28 7a3f 1685 3c3f 85d8 273f
00000380: 15d7 263f 7caf ed3e 8522 583f 3788 c93e
00000390: f063 fa3e fc8c 473f 45be c53e 047f 413f
000003a0: e33d 233f 3075 6c3f 4863 063f 5d9f 4b3f
000003b0: 117b b73f d8d9 9e3f 32f9 293f ae16 cc3f
000003c0: 7581 9b3e 72be b53e 92f9 593f fb68 6c3f
000003d0: 90df cd3f a659 2c3f c96e 103f f070 d32d
000003e0: 90ba b33f 248f 163f 317e 863f 8b19 db3e
000003f0: a872 7b3f 678d 843f b4b3 bf3f 3dd5 953f
0.6153592 0.58577603 1.2113994 0.8725933 0.61135983 0.46323588 0.5933584 2.0916939
0.6168525 0.50100553 0.6922169 1.4535323 0.53204405 0.7130985 0.7608954 0.71245563
1.2171078 0.72461486 0.53374934 0.91352993 1.7453578 0.7923444 0.35810772 1.5255868
0.94696754 0.6083275 1.8866545 0.9217592 0.46229184 0.3399611 0.670759 0.7370128
1.6169485 0.85988593 0.8990184 0.6170395 0.5145494 0.72684747 0.72596115 0.59817874
1.1451801 0.7046586 1.1022332 0.85157424 0.6696493 0.89243376 0.7402078 0.6224247
1.9920518 0.44594473 0.47809324 0.7885932 0.8949661 1.5864093 1.3265842 0.4065564
1.0322402 1.013952 0.77826816 0.449804 0.6268309 0.46567488 0.61154324 0.4752205
0.43087214 0.41338852 3.5444174e-12 0.6250465 0.2643369 1.344432 0.87349385 1.7289559
0.4205851 0.71292603 0.63231546 0.2789764 0.7824381 0.5757586 2.1122112e-12 0.39113843
0.8833452 1.2183168 1.2302028 1.0191725e-11 1.0114297 0.6452274 0.6188167 0.6557882
1.9184574 0.2933489 0.5945525 0.8846091 0.7160358 0.561196 0.7916073 0.54539335
0.50918543 0.76598734 0.8914262 0.61882395 0.59184337 0.55614513 0.620718 0.3083716
0.7615461 0.35403615 0.8015661 1.5506573 2.1555939 0.9565686 0.20203102 0.25003764
1.4487622 1.2874205 0.8106787 1.2137047 1.0553045 1.0524435 0.5964048 0.9681438
0.49934986 1.054178 1.8874425 1.8834846 0.47485492 0.7257274 1.6343637 1.431348
0.6115928 0.758645 0.4627451 0.66648644 0.6504608 0.6573005 1.2321963 0.9163853
0.7792446 1.5679966 0.65346164 0.5665251 0.93192726 0.78247744 0.5080344 0.78954387
0.7769312 0.69747734 1.0683972 0.6416723 1.065461 0.2750331 1.2804852 0.62049484
0.9185148 0.69810987 0.7202361 1.2721152 0.85580283 0.8639661 0.5876724 0.54539216
1.3377701 0.6268401 0.5767759 0.43132785 1.0627756 1.0906639 1.06085 0.8050206
0.44973895 1.3830004 0.46452007 0.9217353 0.2703251 0.24163425 1.5456603 0.5182488
0.667362 0.38032573 1.9317322 0.8089978 1.2456653 0.8249582 1.3160628 0.53373927
0.40138456 0.67006487 0.8803946 0.73830104 0.5830267 0.7620669 0.653501 0.75158024
0.6549615 1.0989771 0.5468629 2.1592176 0.80067325 0.5965652 1.3087159 0.6453768
0.63852394 0.9379511 0.88597846 0.6467877 0.42183477 0.7524711 0.9338256 0.66485596
0.789419 0.57334214 0.22617759 0.85924333 0.8792055 0.670138 0.6684465 0.81185985
0.32106966 1.134454 0.9081621 1.0143625 0.70488936 0.9771822 0.73640573 0.6556476
0.6517194 0.46422946 0.8442767 0.39361736 0.4890437 0.779495 0.38621727 0.75584435
0.63766307 0.92366314 0.5249524 0.79540044 1.4334432 1.2410231 0.66395867 1.5944421
0.30372205 0.3549686 0.8514644 0.9234769 1.6083851 0.6732429 0.56419045 2.4038077e-11
1.4041309 0.58812165 1.050726 0.42792925 0.98221827 1.0355653 1.4976716 1.17057

fc2.weight f4 [128, 260]
00000000: adc1 b83d 51c2 343f 801d 01bf d6ac c3bd
00000010: 3f45 8c3c 8a80 bfbe bed1 263e ceaa 60be
00000020: ec07 20be 51aa 85bd 2bff 083d 4744 73bc
00000030: 0110 d93e 5b22 87be 8c53 c0be cf90 953d
00000040: 3b38 973d 3908 0ebe 24ca e1be ffe7 283f
00000050: 1e66 9f3e 1a07 4f3e ea70 b93e fc51 d63e
00000060: 2f9a 553f 8040 24be e106 8d3e bba1 a5be
00000070: f0b6 d5be 9ab2 a2bd 46da 36bf 791a 1abf
00000080: 99fc aabe 7caf c03e 5769 14be e45b e9be
00000090: 0910 143f 08ba 0bbf dd65 793d 6d1a a83b
000000a0: e60b b13e 2024 40bf 8070 bf3e 9831 213e
000000b0: 9b1e 363e 91f5 13be 487b b03c 72f7 8cbe
000000c0: 3934 0cbe ebc1 fe3d 97d6 05bf fbc8 a9bf
000000d0: 255a fcbe 9080 c63d 88d0 ac3e 8b83 10bf
000000e0: 2eb9 bebd d8cc 7c3e 2e07 a7be c408 6d3f
000000f0: 25fa d93e 5398 da3e 013b 43bd 116b 41be
00000100: 686d 943e a39c 523e b418 63b5 97fb d63c
00000110: 6024 58be fe7c 6ebd 6daa a73e c5e5 2bbf
00000120: 40f1 f3be 2027 31be d758 68bf 3b09 adbe
00000130: bad3 f9bd 333e 953e 53f3 7235 bd44 1e3f
00000140: 18ca 03bf b7c5 b4be 0bf3 2ebf 3dae 6c35
00000150: be39 843c 872f 8d3e ba40 f23e 9e05 c43e
00000160: b81e 8fbe 7e24 143e 0f46 113f bd08 263e
00000170: 24be 03bf 0144 c8be e21f b0be 6b81 0cbe
00000180: aff6 e6be 3fba e9be 2e5b aebe 860b 39bf
00000190: 6ae2 153e c58a 413e 5a92 2c3d 0cbd 383e
000001a0: 68cb d8be 5a1c 93be 7d27 9bbe b288 68be
000001b0: 5ea5 cabe 622d b43e 8157 8e3d b3be eb3d
000001c0: 6ed3 143e b05e 63be c0aa 77bd 7c68 b7be
000001d0: a6ec 95be fbaf 1d3f 9b64 3c3d b6fd a83e
000001e0: 63f2 1d3d 7c63 913e 4193 2bbf 2003 5fbe
000001f0: 9c93 e83e 9cf8 2abe 1945 28bf fb44 b5be
00000200: 18e0 4b3e d73a 083e 0ffb c3be 110b 633c
00000210: 74df 4dbf 9acb b83d 4f3e 08be 0028 a2be
00000220: af8e 8bbe cf9a ed3e 311b 933e 34d0 e7ba
00000230: f2c5 85bf 8a3a 733e 91df 2d3e 9e86 01bf
00000240: 49a5 8abd 7828 83be 6f3b c73e 9338 553c
00000250: d9c4 ff3d 78ab cdbd 7a50 a73e cfb4 ee3e
00000260: b190 643e ecaf c43d 7738 febe 4433 c33d
00000270: f1f3 343f e0aa 36bd b11c 10bf 9313 d0be
00000280: 7c33 7ebd 00d1 203e 5538 633e a691 ff3d
00000290: e452 0bbf 53fc f4be 6d8c 4f3f e1ac 8f3e
000002a0: d78a 403e 7a1e c53e 63e7 033e ac08 de3b
000002b0: 3c30 e7be 9b61 1ebe 8c8e 28be ae85 05bd
000002c0: b791 893e 99e4 21bf 5492 983e c499 53bc
000002d0: c6ad 18be 8cea 4dbe 5502 aabd ffc7 a5be
000002e0: a4e7 e43d a314 15bf 0da2 20be 999d fe3d
000002f0: 51c6 b1be ff0a acbd ef7a 02bf 733b bd3d
00000300: a0f0 55bf e61e cdbe e2ef c3bd 3276 e3bd
00000310: 6d48 ffbe 2382 ca3e 06d3 1fbe 71ce e8bd
00000320: 0d7b 0f3f 42f3 a53d 469a a4be 664a a03e
00000330: 641c adbe 7cae fdbd 7045 4a3e 0189 233e
00000340: 329c e3bd 32d5 bcbe 062c 213d 6c0a c0bd
00000350: cb1b 8d3e 1265 383d 479e b1bc f195 53be
00000360: 0ff0 65bf d85a d13e ea4d 32bf 7452 3a3e
00000370: b060 dcbe 8690 c53d 2a19 013d 38d2 fc3e
00000380: 3698 c0be 9021 ef3d 6bd8 593e b8a1 163e
00000390: d48b 9b3e ad12 003e d321 7fbd 4785 9b3d
000003a0: 2b12 05be cf6d 083e 597d 55bd 5e5e 3c3f
000003b0: 4b06 6e3e e11e 4dbf ef22 173f 9fd8 18bd
000003c0: 6e3b a13e 7519 4abe 91c9 15be 0e6f aebe
000003d0: 5932 12be 11b4 163f 867b 78be 46e0 99b5
000003e0: 8222 eb3e beba a6bd b4a7 c03e 1f84 cc3d
000003f0: c262 713e 1b7e 843e 5f5f 883e 64e8 0bbd
0.09021316 0.70609003 -0.5043564 -0.0955445 0.017122863 -0.37402755 0.16290948 -0.21940157
-0.15628022 -0.06526626 0.033446472 -0.014847822 0.42395023 -0.263934 -0.3756374 0.07303011
0.07383772 -0.13870324 -0.44099534 0.65979 0.31132597 0.20217553 0.3621896 0.41859424
0.8343839 -0.1604023 0.2754431 -0.32349953 -0.41741133 -0.07944222 -0.7142681 -0.60196644
-0.33395842 0.37633884 -0.14493309 -0.4557792 0.5783697 -0.54580736 0.06088816 0.0051301033
0.3457939 -0.7505512 0.37390518 0.15741575 0.17785113 -0.14449145 0.02154316 -0.27532536
-0.13691796 0.12439331 -0.52280563 -1.3264459 -0.49287525 0.0969249 0.33752847 -0.5645072
-0.09312664 0.24687517 -0.32622665 0.925915 0.42573658 0.4269434 -0.047663692 -0.18888499
0.2898972 0.20567565 -8.460004e-07 0.026243014 -0.21107626 -0.05822467 0.32747212 -0.67147475
-0.47644997 -0.17300081 -0.9076056 -0.33796105 -0.12198587 0.29149017 9.050611e-07 0.61823636
-0.51480246 -0.35307094 -0.68339604 8.81704e-07 0.016140815 0.27575323 0.47315007 0.38285536
-0.27953124 0.14467046 0.56747526 0.16214271 -0.51462007 -0.39114383 -0.34399325 -0.13721244
-0.4511008 -0.45649907 -0.3405394 -0.7228321 0.14637151 0.18900593 0.04213176 0.18040866
-0.42342687 -0.28732568 -0.30303565 -0.22708395 -0.3957929 0.35190874 0.06950284 0.11510982
0.14533779 -0.22204089 -0.060465574 -0.35821903 -0.2928211 0.6159665 0.045994382 0.33006066
0.038561236 0.28396213 -0.67021567 -0.21778536 0.45425117 -0.166964 -0.65730435 -0.3540419
0.19909704 0.13303696 -0.3827748 0.013857619 -0.8041909 0.09023209 -0.13305019 -0.31671143
-0.27257296 0.46407172 0.28731683 -0.0017685951 -1.0451033 0.237528 0.16979815 -0.50596035
-0.06769807 -0.25616813 0.38912532 0.013013977 0.124887176 -0.10042471 0.32678586 0.4662232
0.2232082 0.09603867 -0.49652454 0.095312625 0.70684725 -0.044596553 -0.5629378 -0.40639934
-0.062060818 0.15704727 0.22189458 0.12478952 -0.54423356 -0.47848758 0.8107365 0.28061584
0.18802963 0.38499814 0.12881236 0.006775936 -0.45153987 -0.15466921 -0.16460627 -0.03259819
0.26868984 -0.6323944 0.2979914 -0.012915079 -0.1491004 -0.20109004 -0.08301226 -0.32379147
0.111769944 -0.58234614 -0.15686817 0.12432403 -0.34721616 -0.08400535 -0.5096883 0.09239855
-0.8357029 -0.40062636 -0.095672384 -0.11106528 -0.49859944 0.3955241 -0.15607843 -0.113675006
0.56047136 0.08103038 -0.3214895 0.31306762 -0.33810723 -0.12386796 0.19753051 0.15970232
-0.11113776 -0.36881405 0.039348625 -0.09376988 0.27560267 0.045018263 -0.021681918 -0.20662667
-0.89819425 0.4088962 -0.6965014 0.18195516 -0.43042517 0.09646706 0.03151814 0.49379134
-0.37616128 0.116763234 0.21273963 0.14710128 0.30380118 0.12507124 -0.062288117 0.0759378
-0.12995212 0.13323139 -0.052121494 0.7358149 0.23244588 -0.8012524 0.5903768 -0.03731596
0.31490654 -0.19736274 -0.14627673 -0.34069103 -0.14277019 0.5886851 -0.2426587 -1.146466e-06
0.45924765 -0.08141087 0.37627947 0.099861376 0.2357283 0.2587746 0.26635262 -0.03415717
