Continious Control/checkpoint_actor.pth (torch_old, 209751 bytes, 20 tensors)

bn.weight f4 [33]
0	0x3f191c79	0.5980907
1	0x3f005d20	0.501421
2	0x3f1fa68c	0.62363505
3	0x3eea6416	0.45779485
4	0x3ebfa34b	0.3742927
5	0x3ed44121	0.4145594
6	0x3ebbc137	0.3667085
7	0x3e25c0d7	0.16186844
8	0x3e07ee24	0.13274437
9	0x3dda0366	0.106451795
10	0x3e714233	0.23560409
11	0x3e7c521b	0.24640696
12	0x3e8717fc	0.26385486
13	0x3f83bba0	1.0291634
14	0x3f1fc2ba	0.62406504
15	0x3f838e97	1.027789
16	0x3ef90ac3	0.48641023
17	0x3f183816	0.5946058
18	0x3eca7492	0.3954206
19	0x3f36ebdc	0.7145364
20	0xbe223b9f	-0.15843056
21	0x3dee2f70	0.11630142
22	0x3e0280f2	0.12744501
23	0x3f0d61ae	0.5522717
24	0x3efbcdd3	0.4918047
25	0x3f122fd7	0.5710425
26	0x3f8e03b6	1.1094882
27	0x3e614ea8	0.22002661
28	0x3f8fb7f0	1.1228008
29	0x3e83a066	0.25708312
30	0x3d3b9670	0.045797765
31	0x3e33b898	0.17550886
32	0x3fa85dea	1.315366

bn.bias f4 [33]
0	0x3c0e0487	0.008668072
1	0xbb18a516	-0.0023291758
2	0xbc847a11	-0.016171487
3	0xba4d0568	-0.0007820935
4	0x3babad63	0.005239175
5	0x3accd409	0.0015627156
6	0xbafac7c7	-0.0019133025
7	0x3b5fa5c5	0.0034125906
8	0x3b1d2062	0.00239756
9	0xbb766b38	-0.0037600528
10	0x3bd4d14b	0.006494676
11	0x3b1f0ebf	0.0024270264
12	0x3b6eaee9	0.0036420173
13	0xbc4b923f	-0.0124250045
14	0x3b3ef930	0.0029140227
15	0xbc402774	-0.011728156
16	0xba9270b1	-0.0011172501
17	0xbbaf072e	-0.005341432
18	0xbc67dab3	-0.014151263
19	0xbc15bd05	-0.009139304
20	0xbc52a0db	-0.012855734
21	0xba388b0c	-0.00070397626
22	0x3b798bb5	0.0038077657
23	0xba97fc41	-0.0011595563
24	0xbb63c43f	-0.0034754423
25	0xbb7d704d	-0.0038671673
26	0x398116dc	0.0002462183
27	0xb9a37955	-0.00031180182
28	0xbb5116b6	-0.0031904406
29	0xbaa11e04	-0.001229227
30	0xb937094c	-0.00017455703
31	0x3ad2df84	0.0016088341
32	0xbb128ee3	-0.0022363

bn.running_mean f4 [33]
0	0xbdcec8e2	-0.10096909
1	0xc01ff09a	-2.4990602
2	0x3d31c342	0.043399103
3	0x3f3b0419	0.7305313
4	0xbcd1dcb5	-0.025617937
5	0x3c09a526	0.008401191
6	0x3c1a397f	0.009413122
7	0x3c57b02a	0.013164559
8	0x3b540e8b	0.00323573
9	0x3a89308f	0.0010466742
10	0x3c378e46	0.011203354
11	0x3beb709f	0.0071850563
12	0xbae6f3ff	-0.0017620324
13	0xbe29c4c2	-0.16578963
14	0xc03bf2cc	-2.9366941
15	0xbd1ae31d	-0.03781425
16	0x3c9e3bc2	0.019315604
17	0xbd9f7828	-0.0778659
18	0x3c3f9182	0.011692407
19	0xbe8c995a	-0.27460748
20	0x3a5b4fdf	0.0008366089
21	0xbc250358	-0.010071598
22	0xbc969279	-0.01838039
23	0xbc655361	-0.01399693
24	0x3e09ddff	0.13463591
25	0xbc1cc48e	-0.009568347
26	0xbd2d5e88	-0.04232648
27	0xbf7ffffc	-0.99999976
28	0x3c803431	0.015649887
29	0x00000000	0.0
30	0x3f7ffffc	0.99999976
31	0x00000000	0.0
32	0xbb0f4c04	-0.0021865377

bn.running_var f4 [33]
0	0x40662b21	3.5963824
1	0x3fb4b0d6	1.4116466
2	0x40997747	4.79581
3	0x3e65d653	0.2244504
4	0x3d82c243	0.06384709
5	0x3d61e611	0.05515105
6	0x3dfa0ad0	0.122090936
7	0x3f2e2e44	0.68039346
8	0x3da76525	0.08173589
9	0x3e3547cc	0.1770317
10	0x4050ae84	3.2606516
11	0x4047c6d6	3.121511
12	0x40796676	3.8968787
13	0x418555e7	16.666945
14	0x4081839f	4.047317
15	0x41a7fa7f	20.997313
16	0x3e0907d0	0.13381886
17	0x3ea8cc72	0.3296848
18	0x3e00630c	0.12537783
19	0x3ea87c2f	0.32907245
20	0x403f23f7	2.9865701
21	0x3f4fa120	0.8110523
22	0x3f89da77	1.0769795
23	0x412a7215	10.652852
24	0x41342ab3	11.260425
25	0x41566937	13.400687
26	0x420082cb	32.127728
27	0x00000004	6e-45
28	0x41fefca0	31.873352
29	0x00000004	6e-45
30	0x00000004	6e-45
31	0x00000004	6e-45
32	0x3eac0858	0.33600116

fc1.weight f4 [256, 33]
0	0x3c4d67ce	0.012536956
1	0x3f04fcf6	0.5194849
2	0xbe782791	-0.24233843
3	0x3daa37f4	0.083114535
4	0x3f1a2c5b	0.6022393
5	0x3f8219ee	1.0164163
6	0x3eb97063	0.36218557
7	0xbd8778ad	-0.06614814
8	0xbee92c9e	-0.45541853
9	0xbe244784	-0.16042906
10	0x3ed9940b	0.4249576
11	0x3e4766b8	0.19472778
12	0xbe08924c	-0.13337058
13	0x3d2cfa96	0.042231165
14	0xbb9f9418	-0.004869949
15	0xbd696fd9	-0.05699143
16	0x3e8d1124	0.2755214
17	0x3d90a430	0.07062566
18	0x3e6bc61d	0.23024793
19	0x3f0908e2	0.5352918
20	0x3ad61761	0.0016333872
21	0x3e540f9c	0.2070908
22	0xbec2fa79	-0.3808172
23	0xbd8100dc	-0.06298992
24	0x3de5c71c	0.11219618
25	0x3e8f6971	0.28010133
26	0xbd512f2d	-0.05107038
27	0xbcb4d445	-0.022073874
28	0xbe5c3f0d	-0.21508427
29	0xbc37664b	-0.011193822
30	0x3c90a039	0.017654525
31	0x3d451404	0.04811479
32	0x3f16f835	0.58972484
33	0xbb960b47	-0.004578981
34	0xbe7e47d4	-0.24832088
35	0x3f066838	0.52502775
36	0xbe9553cf	-0.29165503
37	0x3df4c238	0.11951107
38	0x3eb2f995	0.3495604
39	0xbe9d8b20	-0.30770206
40	0x3ef7008f	0.48242614
41	0xbbb40cd7	-0.0054946947
42	0x3e46dcf0	0.19420218
43	0xbd327bb8	-0.04357502
44	0xbe978ce8	-0.2959969
45	0xbd7b57e5	-0.06136312
46	0x3de16466	0.110054776
47	0x3e6d90ba	0.2319974
48	0xbf077235	-0.5290864
49	0xbf08a3ff	-0.5337524
50	0xbc534714	-0.012895364
51	0xbd8b70c9	-0.068086214
52	0x3f037196	0.51345193
53	0x3ddb4e36	0.10708277
54	0xbe82bc37	-0.25534222
55	0x3eb4fbfd	0.35348502
56	0xbcfc46dc	-0.030795507
57	0xbe16341a	-0.14668313
58	0xbf54abeb	-0.83074826
59	0xbe41f440	-0.1894083
60	0x3c2bf5c9	0.0104956115
61	0x3d9d373a	0.07676549
62	0x3d066400	0.03281021
63	0xbd05bc90	-0.03265053
64	0xbd64db3c	-0.05587314
65	0x3f1c70bb	0.61109513
66	0x3eea3060	0.45740032
67	0xbe60408e	-0.21899626
68	0xbe9a257e	-0.3010673
69	0xbd9321dc	-0.071841925
70	0x3e4ddd0d	0.20103855
71	0xbf6822b7	-0.9067797
72	0x3f072361	0.5278836
73	0x3e59ce8d	0.21270199
74	0xbf001b34	-0.5004151
75	0x3e9ae2cd	0.3025116
76	0xbc7847fd	-0.015153882
77	0xbe57fef9	-0.21093358
78	0xbe9be1b8	-0.30445647
79	0xbe332923	-0.17496161
80	0x3da2cf3d	0.07949684
81	0xbdf02a59	-0.11726827
82	0xbebfa978	-0.37433982
83	0x3de5b2c3	0.11215737
84	0x3ed653c1	0.41860774
85	0x3f6fe2b8	0.9370532
86	0xbdcc9627	-0.09989577
87	0x3ebf2a35	0.3733689
88	0x3e0fe085	0.14050491
89	0x3edb9bde	0.42892355
90	0xbdc6226b	-0.096745335
91	0x3c44fd93	0.012023347
92	0x3d7ddd12	0.061978407
93	0x3cb549cf	0.022129921
94	0x3e470a18	0.19437444
95	0xbcd05191	-0.025429519
96	0x3b26962d	0.0025419102
97	0x3b830174	0.003997976
98	0xbce094ab	-0.02741464
99	0x3f1824a0	0.59430885
100	0x3ee61306	0.4493639
101	0x3e02e8ed	0.12784167
102	0xbe4d9073	-0.20074634
103	0xbf2b0b63	-0.6681425
104	0x3e80310c	0.2503742
105	0xbe84ffa5	-0.2597629
106	0xbeab24e6	-0.3342659
107	0x3f22df6f	0.6362218
108	0xbd70511e	-0.05867111
109	0x3ec8a2c1	0.3918667
110	0x3e8a421c	0.27003562
111	0x3e139da6	0.14415607
112	0xbe8b04b7	-0.27152035
113	0xbf1cd3e0	-0.61260796
114	0xbe22e745	-0.15908535
115	0x3eeea94a	0.46613532
116	0xbdda8cf8	-0.10671419
117	0xbef30015	-0.47461
118	0xbe509dff	-0.2037277
119	0xbe09d509	-0.13460173
120	0x3dba7176	0.09103672
121	0xbde17e69	-0.11010439
122	0xbeb5ae70	-0.35484648
123	0xbe7b8e31	-0.2456596
124	0xbe92f37d	-0.28701392
125	0xbedd40fc	-0.43213642
126	0x3d56b1b3	0.05241556
127	0x3e8eb6c9	0.2787383
128	0xbd4425e9	-0.047887716
129	0x3d5d9a63	0.054102313
130	0x3b4d6eb6	0.0031346506
131	0x3e3e30b3	0.18573265
132	0xbe27fe1b	-0.16405527
133	0x3e271376	0.16316018
134	0x3de4c261	0.11169887
135	0xbd8788a2	-0.066178575
136	0x3da184e3	0.07886674
137	0xbed78f0b	-0.4210132
138	0xbe9beb2c	-0.3045286
139	0x3eaff5b5	0.34367147
140	0x3ca0de8f	0.019637374
141	0x3d4e2180	0.050324917
142	0x3e5a79a6	0.21335468
143	0x3eae00cb	0.3398498
144	0xbd89c779	-0.067274995
145	0xbd10608d	-0.035248328
146	0xba38f0e8	-0.0007054941
147	0xbe9e7984	-0.30952084
148	0xbe490257	-0.19629799
149	0x3e822952	0.2542215
150	0x3e90ecad	0.2830557
151	0x3e4ee7fc	0.20205683
152	0xbb9726f9	-0.0046128
153	0xbd877a89	-0.066151686
154	0x3c8192f4	0.015817143
155	0x3e5f77b1	0.21823002
156	0xbe7af4bf	-0.24507426
157	0x3e340ee3	0.17583804
158	0x3f4118ba	0.75428355
159	0x3bc3240e	0.005955226
160	0x3e9ce422	0.30642802
161	0xbc9d18a7	-0.019176794
162	0x3ca13249	0.019677298
163	0x3d170414	0.036869124
164	0x3f8389c6	1.027642
165	0x3d72c266	0.059267424
166	0x3e4b69fe	0.19864652
167	0x3e13f6ad	0.14449568
168	0xbef11070	-0.47082853
169	0x3e8c74d4	0.27432883
170	0xbf27abf2	-0.6549674
171	0x3e46e6d4	0.19423991
172	0x3ec0293d	0.37531462
173	0xbe0cb55e	-0.13741061
174	0xbe353323	-0.17695288
175	0x3e431201	0.19049837
176	0xbe4a4d71	-0.19756104
177	0xbe3225c1	-0.17397214
178	0x3dcd9172	0.10037507
179	0x3e222cac	0.15837353
180	0xbd2a6b16	-0.04160603
181	0xbe8a3d5b	-0.26999936
182	0xbce66603	-0.028124815
183	0x3eec3800	0.46136475
184	0x3edc1e08	0.42991662
185	0x3f048009	0.51757866
186	0x3e138426	0.1440588
187	0x3ca2f79e	0.019893464
188	0x3ec1e277	0.3786809
189	0x3dd846d5	0.10560385
190	0x3d41cdf5	0.047315557
191	0xbf5a92aa	-0.8538004
192	0xbce6a4f2	-0.028154824
193	0xbed4549d	-0.41470805
194	0xbccd90b8	-0.025093421
195	0xbc0c4667	-0.008561707
196	0xbd17f52d	-0.037099052
197	0x3f066f64	0.5251372
198	0x3ef28f63	0.4737502
199	0x3ba856c7	0.005137298
200	0xbe60c12c	-0.21948689
201	0x3e4574ba	0.19282809
202	0x3e5e5d12	0.21715191
203	0xbea8d0c6	-0.32971781
204	0xbf002e29	-0.50070435
205	0x3eb85bf3	0.36007652
206	0x3e5b1936	0.21396336
207	0x3da67700	0.08128166
208	0x3e8bc406	0.27297992
209	0xbdc6087d	-0.09669588
210	0xb9d3603b	-0.00040316753
211	0xbf653333	-0.8953125
212	0x3e5d852e	0.21632835
213	0x3e4dee69	0.20110478
214	0xbe8f8220	-0.28028965
215	0xbe268f2c	-0.16265553
216	0xbe5543e8	-0.20826685
217	0x3d86fd1d	0.06591246
218	0xbeae54c0	-0.34049034
219	0x3b4effaf	0.0031585505
220	0x3ecd0d6d	0.40049306
221	0xbf6aa03a	-0.91650736
222	0xbe113648	-0.14180863
223	0x3e9efc54	0.31051886
224	0x3d22fb2f	0.03979033
225	0xbcd78a8a	-0.026311178
226	0x3e8d9483	0.27652368
227	0xbccdee49	-0.025138037
228	0x3b1a7e17	0.002357369
229	0x3b53a58f	0.0032294726
230	0xbd964e5c	-0.073391646
231	0x3ef6d520	0.48209476
232	0x3eb76354	0.3581797
233	0x3d582573	0.05277009
234	0xbd790809	-0.06079868
235	0x3e2500a8	0.16113532
236	0x3e908a69	0.282306
237	0x3b1e8463	0.0024187795
238	0x3db33639	0.087505765
239	0xbc0426ff	-0.008065938
240	0x3e51ebc2	0.2050009
241	0xbe95df65	-0.29272
242	0xbe06f8a8	-0.13180792
243	0x3eb5352b	0.35392126
244	0xbf573c47	-0.8407635
245	0xbf029d92	-0.51021683
246	0xbce87628	-0.028376654
247	0xbf0a81b6	-0.54104173
248	0xbe7e9c9d	-0.2486443
249	0xbe868029	-0.26269653
250	0x3dfe7acd	0.12425766
251	0xbe559531	-0.20857693
252	0x3e1daf9c	0.15399021
253	0xbd8092d1	-0.06278003
254	0xbf17036b	-0.5898959
255	0xbe2b233d	-0.16712661

fc1.bias f4 [256]
0	0xbdfe0bdb	-0.12404605
1	0xbdcaf152	-0.099093094
2	0x3df74984	0.12074569
3	0xbdf044d4	-0.11731878
4	0xbdf593d3	-0.11991086
5	0x3e1e9fb9	0.15490617
6	0x3d843ad0	0.0645653
7	0xbe11a9f9	-0.14224996
8	0x3d191fbb	0.037383776
9	0x3e091d4f	0.13390087
10	0x3e216952	0.15762833
11	0x3e17840b	0.14796464
12	0xbce92ba8	-0.0284632
13	0x3ded7c38	0.115959585
14	0xbc0d431f	-0.00862196
15	0x3e1411ea	0.14459959
16	0x3de35147	0.11099487
17	0xbe013b92	-0.1262038
18	0x3da9da14	0.08293548
19	0xbd61626c	-0.055025503
20	0xbc613f6e	-0.013748033
21	0xbd41ce82	-0.04731608
22	0x3dbf2d02	0.093347564
23	0xbcf137ad	-0.029445494
24	0x3daa2296	0.08307378
25	0xbe234f34	-0.15948182
26	0x3d688f34	0.056777194
27	0xbd653b1d	-0.055964578
28	0xbd5dd05a	-0.054153778
29	0x3ceadc67	0.02866955
30	0x3c8205c6	0.015871894
31	0xbd489fda	-0.04898057
32	0xbe094177	-0.13403879
33	0x3e26132c	0.16218251
34	0x3b79eb20	0.003813453
35	0x3d6e2357	0.05813917
36	0xbd92b931	-0.07164229
37	0x3e0bd31d	0.13654752
38	0xbde63bd1	-0.11241878
39	0xbe27599e	-0.1634278
40	0x3db1eeac	0.08688101
41	0x3d9b9838	0.07597393
42	0x3dc9aa87	0.09846979
43	0xbdb70be8	-0.08937818
44	0x3c342a0a	0.010996351
45	0xbde93558	-0.11387128
46	0x3d2f7a2f	0.042841133
47	0x3e26affe	0.16278073
48	0x3d2e5c18	0.042568296
49	0xbdd7c2e7	-0.105352215
50	0xbbb0ac6d	-0.0053916485
51	0x3d915bbd	0.07097576
52	0x3dc7ef36	0.09762423
53	0xbe325f00	-0.17419052
54	0xbd9e5194	-0.077304035
55	0xbd7af21b	-0.061266046
56	0x3e136ec6	0.14397725
57	0xbc8883dc	-0.016664438
58	0x3daebd37	0.085321836
59	0x3da2e6b3	0.07954159
60	0x3e16b73e	0.14718339
61	0x3ba26c9f	0.0049567963
62	0x3c11c28a	0.008896479
63	0xbcede69c	-0.029040627
64	0xbe242659	-0.16030253
65	0xbce997eb	-0.028514823
66	0x3dca6bd8	0.09883851
67	0x3da6ab94	0.08138195
68	0x3daf0c02	0.08547212
69	0x3d4603e1	0.048343543
70	0x3d7b1144	0.061295763
71	0x3d314c43	0.04328562
72	0xbc86e06e	-0.016464438
73	0xbd898d61	-0.06716419
74	0x3d15cdce	0.036573224
75	0x3c861ab5	0.016370157
76	0x3b9284b5	0.0044713863
77	0x3e2739a5	0.16330583
78	0xbd461a35	-0.048364837
79	0xbe1a37aa	-0.15060297
80	0xbe17ca3c	-0.1482324
81	0x3d9d0927	0.07667761
82	0xbc93fcf5	-0.018064955
83	0xbdcc1af7	-0.09966081
84	0xbd96e487	-0.07367807
85	0x3dff9921	0.12480379
86	0xbcc6dae1	-0.024274291
87	0x3e0b58d6	0.13608107
88	0x3e05ec3c	0.13078398
89	0xbd2cfce0	-0.042233348
90	0x3e0134e0	0.12617826
91	0x3e23fd5f	0.16014622
92	0x3dba07a7	0.09083491
93	0xbdc86482	-0.09784795
94	0xbd83b5af	-0.06431138
95	0xbda3e337	-0.08002322
96	0xbe2c0714	-0.16799575
97	0xbdd97d2a	-0.10619576
98	0xbe16e566	-0.14735946
99	0x3e071c00	0.13194275
100	0xbd9a17cb	-0.075240694
101	0xbd268d40	-0.04066205
102	0x3d663750	0.056205094
103	0x3c9e77e6	0.019344281
104	0xbdde1d99	-0.10845489
105	0xbd9072c3	-0.07053139
106	0xbd006c44	-0.03135325
107	0x3b95baa6	0.0045693694
108	0xbc147c10	-0.009062782
109	0x3d9e202b	0.07720979
110	0x3a946b1a	0.0011323423
111	0xbdd60e53	-0.10451951
112	0xbd8edba5	-0.069754876
113	0xbd24ff39	-0.04028246
114	0x3df0d30a	0.117590025
115	0x3dff2fbe	0.12460278
116	0xbe16bc39	-0.14720239
117	0xbe0a5039	-0.13507165
118	0x3cc491d7	0.023995323
119	0x3d9b501e	0.075836405
120	0xbd0d1499	-0.03444347
121	0x3d6bc3bf	0.057559725
122	0x399147d7	0.0002771008
123	0xbdb31364	-0.08743933
124	0x3db66722	0.0890639
125	0xbd6ffe01	-0.058591846
126	0xbde62978	-0.11238378
127	0xbb9750f3	-0.004617804
128	0xbd92e3d2	-0.071723595
129	0x3dc7c262	0.097538725
130	0x3e20bb39	0.1569642
131	0x3dded077	0.10879605
132	0xbd5ebc4a	-0.054378785
133	0xbdaeee18	-0.085415065
134	0xbd8117e8	-0.06303388
135	0xbdcdad62	-0.10042836
136	0xbd52e661	-0.051489238
137	0x3e174fb6	0.14776501
138	0x3e30cb1b	0.17264979
139	0xbd842186	-0.064517066
140	0x3d61e562	0.055150397
141	0x3c1bcb23	0.009508881
142	0x3d3a64ee	0.04550641
143	0xbe07f9b5	-0.1327885
144	0xbdc1f949	-0.094713755
145	0xbd267d74	-0.040646985
146	0xbd61401b	-0.054992776
147	0xbd1a3600	-0.037649155
148	0x3d469ea9	0.048491154
149	0xbba65da8	-0.0050770827
150	0xbe1325c9	-0.14369883
151	0x3be3c82b	0.006951352
152	0x3d0a7a42	0.033808
153	0x3e027318	0.12739217
154	0xbdbca008	-0.09210211
155	0xbdc9f2a4	-0.09860733
156	0x3dfa0134	0.12207261
157	0xbd7fd431	-0.06245822
158	0x3d76f24e	0.060289674
159	0x3e115655	0.1419309
160	0xbd00940d	-0.031391192
161	0xbc7b388e	-0.015333308
162	0xbdd6a050	-0.10479796
163	0x3dac6dcf	0.08419382
164	0x3db7fb34	0.0898346
165	0xbe16ab92	-0.14713886
166	0x3dd6a6c8	0.1048103
167	0x3e2d49f9	0.1692275
168	0x3e23bd75	0.15990241
169	0x3d818c86	0.06325631
170	0x3e2b6fe2	0.16741899
171	0x3cf98a07	0.030461324
172	0xbdb61dd4	-0.08892408
173	0xbe0c24fa	-0.1368598
174	0xbe0e7ad2	-0.1391404
175	0x3d8c2c21	0.068443544
176	0x3d9427ed	0.07234178
177	0xbdb78ef9	-0.08962817
178	0x3c6717b6	0.014104774
179	0xbd98eb59	-0.07466764
180	0x3d97744b	0.07395228
181	0xbdfe87e9	-0.124282666
182	0x3cb4e7fd	0.022083277
183	0xbd5140dd	-0.05108725
184	0xbdc99143	-0.098421596
185	0xbd7fd289	-0.06245664
186	0x3e2f496c	0.17117852
187	0x3d21cb41	0.03950048
188	0xbe11b0a2	-0.14227536
189	0x3d8a18c5	0.06743006
190	0xbe194e7e	-0.14971349
191	0x3e0c7d13	0.13719587
192	0xbe14b745	-0.14523037
193	0xbd674e6d	-0.056471277
194	0xbe259161	-0.16168739
195	0xbd7df541	-0.06200147
196	0x3e01462f	0.12624429
197	0x3da067e6	0.07832317
198	0x3c09988d	0.008398187
199	0xbdf9a6ea	-0.121900395
200	0x3e07b645	0.13253124
201	0xbc8ae22b	-0.016953548
202	0xbcc42bb0	-0.023946613
203	0x3da9a4cd	0.082833864
204	0x3db65391	0.08902658
205	0xbdf90fc4	-0.1216121
206	0x3c0bb331	0.008526609
207	0xbdf25dc0	-0.11834288
208	0xbdf11c0d	-0.117729284
209	0x390ecd19	0.0001361858
210	0xbb2be663	-0.002622985
211	0x3d343f54	0.044005707
212	0xbde1b720	-0.110212564
213	0x3d3c5b70	0.04598564
214	0x3de2759a	0.11057587
215	0x3c683571	0.014172898
216	0x3e1b222d	0.15149756
217	0x3b68e1df	0.003553502
218	0xbe01c525	-0.12672861
219	0xbda1f8ec	-0.07908806
220	0x3d55d315	0.052203257
221	0xbdf4051c	-0.11915037
222	0xbdd5c0e9	-0.10437185
223	0x3e2548ba	0.16141024
224	0x3e1f971a	0.15584984
225	0x3e094f4f	0.1340916
226	0x3d1fbbc3	0.038997423
227	0x3cb086d0	0.021548659
228	0xbe2118e9	-0.15732159
229	0x3d06dd18	0.032925695
230	0x3dcae8d7	0.09907692
231	0x3e22224e	0.15833399
232	0xbd8138db	-0.063096724
233	0xbe182518	-0.148579
234	0x3d25f9a4	0.04052128
235	0x3d3c7abd	0.04601549
236	0xbd84f61d	-0.06492255
237	0xbdd756a1	-0.1051457
238	0xbdf7f6be	-0.12107609
239	0x3c9bce43	0.019019252
240	0x3e1d65dd	0.15370889
241	0x3da8da74	0.082447916
242	0xbdb8c4d5	-0.09021918
243	0x3e0e6f42	0.13909629
244	0x3e1d4d11	0.1536143
245	0x3d4d88b7	0.05017921
246	0x3e167085	0.1469136
247	0xbe001068	-0.12506258
248	0x3da9644c	0.08271083
249	0xbdc0247a	-0.09381957
250	0x3e1a6dbc	0.15080923
251	0x3dee1e93	0.11626925
252	0x3dbfa19b	0.09356996
253	0x3e1aba08	0.15110028
254	0x3c6295ce	0.0138296615
255	0xbd0266a4	-0.031836167

bn1.weight f4 [256]
0	0x3f1a7d9a	0.603479
1	0x3f28445a	0.65729296
2	0x3eeefca9	0.4667714
3	0x3f02b1ce	0.5105256
4	0x3f47bbb9	0.7802082
5	0x3f070c5b	0.5275323
6	0x3f00773b	0.5018193
7	0x3f260c4a	0.648625
8	0x3efb7811	0.4911504
9	0x3f1b34af	0.60627264
10	0x3ee9d014	0.45666564
11	0x3f3f689e	0.7476901
12	0x3eb31952	0.34980255
13	0x3ec3d991	0.38251927
14	0x3f06d0da	0.5266243
15	0x3efe91e1	0.49720672
16	0x3f4eae9b	0.80735177
17	0x3f0668e8	0.52503824
18	0x3f2aca01	0.66714483
19	0x3f2a1eed	0.6645344
20	0x3f163b97	0.58684677
21	0x3f6209e1	0.88296324
22	0x3f1d1eaa	0.61374915
23	0x3f22cbd6	0.6359228
24	0x3f0a4ce4	0.54023576
25	0x3ee71e2e	0.45140213
26	0x3f3197dd	0.6937235
27	0x3f248ac5	0.64274246
28	0x3ef814c1	0.48453334
29	0x3f0f29e4	0.55923295
30	0x3f167f70	0.58788204
31	0x3f22e4fa	0.6363064
32	0x3ee74fd8	0.45178103
33	0x3f122e7e	0.5710219
34	0x3f229bc4	0.6351893
35	0x3eeb6d32	0.45981747
36	0x3f2f514a	0.6848341
37	0x3f178fcb	0.59203786
38	0x3f2b6d1e	0.66963375
39	0x3f1a7838	0.6033969
40	0x3ed5a9a4	0.41730988
41	0x3eb43ebb	0.3520411
42	0x3f27c332	0.6553222
43	0x3f39ffb3	0.7265579
44	0x3f1279f0	0.5721731
45	0x3f00269f	0.5005893
46	0x3f0afb01	0.5428925
47	0x3ee6c6af	0.4507346
48	0x3eff8fd1	0.4991441
49	0x3f1ca728	0.6119256
50	0x3ee94952	0.4556375
51	0x3f0014fb	0.50032014
52	0x3f16f7ec	0.5897205
53	0x3f0e5fc9	0.55614907
54	0x3f1d316e	0.6140355
55	0x3ef1b8d1	0.47211316
56	0x3f3db1a1	0.74099165
57	0x3f0edefb	0.5580899
58	0x3f08080f	0.53137296
59	0x3ee35444	0.44400227
60	0x3f225875	0.63416225
61	0x3ef921cb	0.48658594
62	0x3efe6815	0.49688783
63	0x3efe8c02	0.49716192
64	0x3ebc4992	0.3677488
65	0x3ebe0cae	0.3711905
66	0xbb769c0e	-0.0037629637
67	0x3f1e9d8a	0.61959136
68	0x3f0b840a	0.5449835
69	0x3f0c7a29	0.548739
70	0x3f38d795	0.7220395
71	0x3f4b402b	0.7939479
72	0x3ec8eba7	0.39242288
73	0x3f3475c2	0.70492184
74	0x3f008eeb	0.50218076
75	0x3f09c8dd	0.5382212
76	0x3f135d50	0.5756426
77	0x3eedf690	0.46477175
78	0x3f115676	0.56772554
79	0x3f129d91	0.5727168
80	0x3f05f3aa	0.52324927
81	0x3ebda144	0.37037098
82	0x3eed9697	0.46403953
83	0x3b711bcb	0.0036790248
84	0x3f603b45	0.8759044
85	0x3f3196c4	0.69370675
86	0x3f369353	0.7131855
87	0x3f5f6262	0.87259495
88	0x3ec8ab2b	0.3919309
89	0x3f32f814	0.6990979
90	0x3f2d03e9	0.6758409
91	0x3f1a2d0d	0.6022499
92	0x3f480f59	0.7814842
93	0x3eeb2a80	0.45930862
94	0x3f1ccd71	0.6125098
95	0x3f2467bb	0.6422078
96	0x3ee63dfa	0.4496916
97	0x3ef69f1d	0.4816827
98	0x3f262b91	0.6491023
99	0x3eb3534c	0.35024488
100	0x3ed6f0b6	0.41980523
101	0x3f179ad2	0.5922061
102	0x3f0ad0f4	0.5422509
103	0x3f03b6cf	0.5145082
104	0x3f371f13	0.7153179
105	0x3f01df47	0.5073132
106	0x3f194c88	0.598824
107	0x3ed035f4	0.40666163
108	0x3ed5b28e	0.4173779
109	0x3ebcf4cf	0.36905524
110	0x3ee69089	0.45032147
111	0x3f34d893	0.70642966
112	0x3f50d851	0.8158007
113	0x3f3533ad	0.70781976
114	0x3f163445	0.58673507
115	0x3f206641	0.6265603
116	0x3f0992dd	0.5373972
117	0x3f468c6f	0.77558035
118	0x3f18cbfa	0.59686244
119	0x3f87b9a1	1.0603524
120	0x3f0d59c9	0.55215126
121	0x3f1bc17a	0.60842097
122	0x3f1384fd	0.576248
123	0x3eb9e073	0.36304054
124	0x3f145d88	0.5795522
125	0x3f21dfde	0.6323222
126	0x3f03dfc5	0.5151332
127	0x3ec0421a	0.3755043
128	0x3f20ec61	0.62860686
129	0x3f162e06	0.58663976
130	0x3f1716b8	0.5901904
131	0x3ee94831	0.4556289
132	0x3f109777	0.56481117
133	0x3f3642d4	0.7119572
134	0x3f231ee0	0.63718987
135	0x3f30b99c	0.6903322
136	0x3ef708b3	0.48248824
137	0x3f1854d3	0.5950443
138	0x3eb8b193	0.36072978
139	0x3f27e4da	0.65583575
140	0x3f023c1d	0.50872976
141	0x3ea9d1e3	0.33167943
142	0x3f0ca14a	0.5493361
143	0x3f55d831	0.83533007
144	0x3eef3b68	0.4672501
145	0x3f16d757	0.5892233
146	0x3f220dc4	0.63302255
147	0x3f0798d5	0.5296758
148	0x3f1ee052	0.62061036
149	0x3f1e9bef	0.61956686
150	0x3f2bdd06	0.6713413
151	0x3f25edc0	0.648159
152	0x3ed2c274	0.4116398
153	0x3f4b5dd0	0.7944002
154	0x3f1e0aa2	0.61734974
155	0x3f004f73	0.5012123
156	0x3f1498bb	0.5804555
157	0x3f13d66e	0.5774907
158	0x3f259761	0.6468411
159	0x3eefc0a1	0.46826652
160	0x3f16c3c4	0.58892465
161	0x3ee6b782	0.4506188
162	0x3ecadf3f	0.39623448
163	0x3ed60de8	0.41807485
164	0x3f1d2064	0.6137755
165	0x3f3ed798	0.7454772
166	0x3ee22fbb	0.4417704
167	0x3f226817	0.6344008
168	0x3f4aa282	0.7915422
169	0x3f09d017	0.53833145
170	0x3efe6f66	0.49694365
171	0x3f4db163	0.80348796
172	0x3efd72f1	0.49501756
173	0x3c1e4def	0.0096621355
174	0x3f03422f	0.51272863
175	0x3f1efa79	0.6210094
176	0x3ea40d2a	0.32041293
177	0x3f4b9357	0.795217
178	0x3f0e1106	0.55494726
179	0x3f216d5e	0.63057506
180	0x3f2078c2	0.6268426
181	0x3f33006e	0.6992253
182	0x3f2fdbea	0.6869494
183	0x3eabb668	0.33537602
184	0x3ef6e58e	0.4822201
185	0x3ed3b2c8	0.41347337
186	0x3f01ca32	0.5069915
187	0x3eed89ae	0.46394104
188	0x3f2176b3	0.63071746
189	0x3f2cf9f1	0.6756888
190	0x3f06c040	0.526371
191	0x3f1c9a6a	0.6117312
192	0x3f0ec7e6	0.5577377
193	0x3f1ab250	0.60428333
194	0x3f1893bf	0.5960044
195	0x3f13cabd	0.5773123
196	0x3f39d031	0.725833
197	0x3f3eed1a	0.7458054
198	0x3f48da19	0.7845779
199	0x3f2c8dc1	0.674038
200	0x3ef5990c	0.47968328
201	0x3f0a3dbb	0.54000443
202	0x3f0d89c4	0.5528834
203	0x3f0ce440	0.5503578
204	0x3f3dc95e	0.74135387
205	0x3f08b192	0.5339595
206	0x3f0d0799	0.5508972
207	0x3f29de2e	0.66354644
208	0x3e9e5acd	0.3092865
209	0x3f18304c	0.59448695
210	0x3f321b25	0.6957267
211	0x3ef6ac0f	0.48178145
212	0x3f2c819d	0.67385274
213	0x3f6d412f	0.9267759
214	0x3f03ae8e	0.51438224
215	0x3f0877df	0.5330791
216	0x3eb3044e	0.34964222
217	0x3f787242	0.97049344
218	0x3f2c5106	0.6731113
219	0x3f052f44	0.52025247
220	0x3f280f4c	0.6564834
221	0xb905fef7	-0.0001277885
222	0x3ef1288f	0.47101256
223	0x3ef6e7c7	0.48223707
224	0x3ee5c7e3	0.44879064
225	0x3f232974	0.6373513
226	0x3e97c4e7	0.29642412
227	0x3eec4813	0.46148738
228	0x3efef445	0.49795738
229	0x3f20b81d	0.62780935
230	0x3f2c15f3	0.6722099
231	0x3ed25466	0.41080016
232	0x3f0b2ad1	0.5436221
233	0x3f8211eb	1.0161718
234	0x3f021426	0.50811994
235	0x3f233d62	0.6376554
236	0x3f38ec69	0.72235733
237	0x3f36771c	0.71275496
238	0x3f1ff6f3	0.6248619
239	0x3f0b5847	0.54431576
240	0x3f38151d	0.71907216
241	0x3ef1b15c	0.47205627
242	0x3ef1902c	0.47180307
243	0x3f3592ba	0.7092701
244	0x3f0e3416	0.55548227
245	0x3f153e1f	0.58297914
246	0x3f4f7351	0.81035334
247	0x3f073bf5	0.5282586
248	0x3edadf8d	0.4274868
249	0x3eb9cbdf	0.36288354
250	0x3f08f18d	0.5349358
251	0x3ee91029	0.45520142
252	0x3f0f9fa9	0.56103
253	0x3f2827fb	0.65686005
254	0x3eeb1986	0.4591791
255	0x3f48d3ad	0.7844799

bn1.bias f4 [256]
0	0xbf5e21c5	-0.8677028
1	0xbedf3452	-0.43594605
2	0xbf0298a3	-0.51014155
3	0xbe6f7aa3	-0.23386626
4	0xbeaaecc5	-0.33383766
5	0xbf1ceaea	-0.6129595
6	0xbcae2218	-0.021256492
7	0xbf07d85b	-0.5306451
8	0xbecf96a1	-0.40544608
9	0xbf5719c5	-0.84023696
10	0xbee1bddc	-0.44090164
11	0xbf14395a	-0.5790001
12	0xbebbb314	-0.36660063
13	0xbe268275	-0.16260703
14	0xbed1a69d	-0.40947428
15	0xbe9cea41	-0.30647472
16	0xbf84eae1	-1.0384179
17	0xbf4a7989	-0.790917
18	0xbf2e8822	-0.6817647
19	0xbe6951f2	-0.22785166
20	0xbe5ae8c5	-0.21377857
21	0xbf8251a3	-1.0181164
22	0xbf28f72a	-0.6600214
23	0xbf206033	-0.6264679
24	0xbea9f26f	-0.33192775
25	0xbf0fae71	-0.5612555
26	0xbf5f6145	-0.87257797
27	0xbe7a4e4b	-0.24443929
28	0xbe84768f	-0.25871703
29	0xbe12dcbf	-0.1434202
30	0xbf6eb4d5	-0.9324468
31	0xbe318670	-0.1733644
32	0xbea0d954	-0.31415808
33	0xbf4f4011	-0.8095713
34	0xbf55eb30	-0.8356199
35	0xbe8ebb90	-0.27877474
36	0xbf117f2b	-0.5683467
37	0xbf042979	-0.5162578
38	0xbf267360	-0.650198
39	0xbf1ff0cb	-0.62476796
40	0xbe79a475	-0.24379142
41	0xbd633208	-0.055467635
42	0xbf261b92	-0.6488582
43	0xbf302b49	-0.6881605
44	0x3be2d2fb	0.0069221235
45	0xbe0f7267	-0.14008485
46	0xbebd9bce	-0.37032932
47	0xbe9e7c97	-0.3095443
48	0xbdb083b0	-0.086188674
49	0xbed2bf78	-0.41161704
50	0xbe452658	-0.19252908
51	0xbee93f0e	-0.4555592
52	0xbf25129f	-0.6448154
53	0xbe89ea78	-0.26936698
54	0xbeef4fa1	-0.4674044
55	0xbeb6864c	-0.35649335
56	0xbf3182e1	-0.6934033
57	0xbef13cf5	-0.4711682
58	0xbec495ec	-0.3839563
59	0xbe6877b3	-0.22701912
60	0xbf004928	-0.5011163
61	0xbec4a6c8	-0.38408494
62	0xbe9b60d2	-0.30347306
63	0xbf1f5df1	-0.6225272
64	0xbe73ccf6	-0.23808655
65	0xbe393969	-0.18088306
66	0xbcfffb78	-0.03124784
67	0xbf1a977d	-0.603874
68	0xbebfbbb3	-0.3744789
69	0xbf1cb180	-0.61208344
70	0xbf828c73	-1.0199112
71	0xbf6fe5f7	-0.93710274
72	0xbce6f69a	-0.02819376
73	0xbef52c0c	-0.47885168
74	0xbe9f120e	-0.31068462
75	0xbe8da622	-0.27665812
76	0xbf1c4dde	-0.61056316
77	0xbe8d87d6	-0.27642697
78	0xbf0e8fe7	-0.5568833
79	0xbee1c5b9	-0.44096163
80	0xbe9d9685	-0.307789
81	0xbe3e9492	-0.18611363
82	0xbe74597e	-0.23862264
83	0xbce78274	-0.028260447
84	0xbf78a611	-0.971284
85	0xbf0ad30a	-0.5422827
86	0xbf2c9b19	-0.6742416
87	0xbf8377d9	-1.027095
88	0x3b1b76b8	0.0023721885
89	0xbee27715	-0.44231477
90	0xbf01b535	-0.50667125
91	0xbec0d5c5	-0.37663093
92	0xbf7618cc	-0.9613159
93	0xbe5e084f	-0.21682857
94	0xbcc66258	-0.024216816
95	0xbf1b6379	-0.6069866
96	0xbe9ca898	-0.30597377
97	0xbf053790	-0.52037907
98	0x3c4dda2a	0.012564221
99	0x3e23bc67	0.15989839
100	0xbeba7354	-0.36416113
101	0xbf1a2c36	-0.6022371
102	0xbf35bb1a	-0.7098862
103	0xbf129b16	-0.5726789
104	0xbe4073a5	-0.18794115
105	0xbe3d900c	-0.18511981
106	0xbf0fbb02	-0.56144726
107	0xbeae9ccd	-0.34104005
108	0xbb6658f1	-0.0035148228
109	0xbdde4bf0	-0.10854328
110	0xbbdadb84	-0.0066790003
111	0xbea38a54	-0.31941473
112	0xbf809ccd	-1.0047852
113	0xbec38406	-0.38186663
114	0xbf2effd3	-0.68359107
115	0xbec102ad	-0.37697354
116	0xbf4c8d45	-0.7990306
117	0xbf0c7c7e	-0.5487746
118	0xbf4cfd1d	-0.8007372
119	0xbf5511b0	-0.83230114
120	0xbe888cde	-0.26669973
121	0xbee77c63	-0.45212087
122	0xbe8831ae	-0.26600403
123	0x3d84e714	0.06489387
124	0xbe640a34	-0.22269517
125	0xbf052d6f	-0.5202245
126	0xbe4e1b23	-0.2012754
127	0xbd8b2c43	-0.06795552
128	0xbe17a5a0	-0.14809275
129	0xbf24406a	-0.6416079
130	0xbee9039f	-0.45510575
131	0xbe9f3651	-0.31096128
132	0xbe08e0e4	-0.13367039
133	0xbf325c83	-0.6967241
134	0xbe54a830	-0.20767283
135	0xbf1abc9d	-0.6044405
136	0xbe6db2f7	-0.23212801
137	0xbf12df6d	-0.5737217
138	0xbe477d1a	-0.19481316
139	0xbf1dbf60	-0.6162014
140	0xbee14dc1	-0.44004634
141	0xbebd2242	-0.369402
142	0xbf096129	-0.5366388
143	0xbf215eb3	-0.63035125
144	0xbeef2feb	-0.46716246
145	0xbf31448d	-0.69245225
146	0xbe80a631	-0.25126794
147	0xbed87c8d	-0.42282525
148	0xbee2bc12	-0.4428411
149	0xbf03a005	-0.51416045
150	0xbf056556	-0.5210775
151	0xbee279f5	-0.4423367
152	0xbeb4d254	-0.35316718
153	0xbf001aa2	-0.5004064
154	0xbf04a435	-0.5181306
155	0xbf432f24	-0.76243806
156	0xbf0846c5	-0.53232986
157	0xbef7fb02	-0.4843369
158	0xbf06f63d	-0.5271948
159	0xbec75182	-0.38929373
160	0xbf2eb530	-0.6824522
161	0xbdd0723d	-0.10178039
162	0x3b1562ac	0.0022794409
163	0xbe350b1b	-0.17680018
164	0xbee81f8c	-0.45336568
165	0xbf156ba0	-0.5836735
166	0xbe24a0c2	-0.16076949
167	0xbf3422c1	-0.7036553
168	0xbefce38a	-0.4939235
169	0xbeb5563e	-0.3541736
170	0xbeedd975	-0.4645497
171	0xbf11627d	-0.56790906
172	0xbee9a2a4	-0.45631897
173	0xbd6b8995	-0.057504255
174	0xbd7a28ab	-0.06107394
175	0xbe518a33	-0.20462875
176	0x3f073cf5	0.5282739
177	0xbf1e8eb0	-0.61936474
178	0xbf041b1b	-0.5160386
179	0xbf016e6f	-0.50559133
180	0xbf223ba9	-0.63372284
181	0xbf2a39a6	-0.66494215
182	0xbf1e0bf9	-0.6173702
183	0x3e1156a4	0.14193207
184	0xbe29d2d8	-0.16584337
185	0xbed3684a	-0.41290504
186	0xbe5bbc51	-0.21458556
187	0xbee086f9	-0.43852976
188	0xbf38b63b	-0.7215306
189	0xbe12407a	-0.14282408
190	0xbe8ef0df	-0.27918145
191	0xbeb8f049	-0.36120823
192	0xbef11eda	-0.4709385
193	0xbe8b7b09	-0.27242306
194	0xbf377b4e	-0.71672523
195	0xbefdbfe8	-0.49560475
196	0xbf143c96	-0.57904947
197	0xbeca966f	-0.39567897
198	0xbf22bd70	-0.6357031
199	0xbf12e4a5	-0.57380134
200	0xbf1abda3	-0.6044561
201	0xbf21d2f0	-0.6321249
202	0xbf17c176	-0.5927957
203	0xbeb0f60b	-0.34562716
204	0xbf486b73	-0.78288954
205	0xbeea682f	-0.4578261
206	0xbe641b37	-0.22276007
207	0xbf0cee2f	-0.5505094
208	0xbcbd0fd5	-0.023078838
209	0xbe9b80ba	-0.30371648
210	0xbf28849a	-0.65827334
211	0xbe9ef18d	-0.31043664
212	0xbece1cb0	-0.40256262
213	0x3d5fae36	0.0546095
214	0xbe421453	-0.18953066
215	0xbeaf0c15	-0.34188905
216	0x3eb450db	0.35217938
217	0xbf0397dd	-0.514036
218	0xbf25c78f	-0.6475763
219	0xbe5eff5e	-0.21777102
220	0xbec3698d	-0.38166466
221	0xbd8f4435	-0.06995431
222	0xbe988b9c	-0.29794014
223	0xbeb9085f	-0.361392
224	0xbed0d2f0	-0.40785933
225	0xbe92d5de	-0.28678793
226	0xbdc9f44c	-0.09861049
227	0xbbe65eec	-0.0070303585
228	0xbf00d41e	-0.50323665
229	0xbf67ad41	-0.9049874
230	0xbdff67b5	-0.124709524
231	0xbe8b2610	-0.27177477
232	0xbe577122	-0.2103925
233	0x3d712fb0	0.05888337
234	0xbee26c51	-0.44223264
235	0xbf6214e9	-0.88313156
236	0xbf123a59	-0.5712028
237	0xbf3640a6	-0.71192396
238	0xbf13d83b	-0.57751817
239	0xbf26bdf9	-0.65133625
240	0xbec0115b	-0.3751324
241	0xbefefdbf	-0.49802968
242	0xbeb654d1	-0.35611585
243	0xbf075411	-0.5286265
244	0xbe9d7550	-0.30753565
245	0xbee25fbc	-0.44213665
246	0xbf15d062	-0.5852109
247	0xbf132495	-0.57477695
248	0xbe1f9194	-0.15582877
249	0xbe2631a4	-0.16229874
250	0xbe0a97be	-0.13534448
251	0xbedac3eb	-0.427276
252	0xbeb7ae1f	-0.3587503
253	0xbe7c88ff	-0.24661635
254	0xbe08be72	-0.13353899
255	0xbf49aa01	-0.7877503

bn1.running_mean f4 [256]
0	0xbe0266a4	-0.12734467
1	0xbdce38eb	-0.1006945
2	0x3dec1c12	0.115287915
3	0xbdcaa458	-0.09894627
4	0xbe01165c	-0.12606186
5	0x3e0c1ab7	0.13682066
6	0x3dc2b6da	0.095075324
7	0xbdf87f76	-0.12133686
8	0x3d251b9a	0.040309526
9	0x3e13fbad	0.14451475
10	0x3e37ee2c	0.17961949
11	0x3e232877	0.15933405
12	0xbd20aeb9	-0.03922913
13	0x3e0921bb	0.13391773
14	0x3c86ce03	0.016455656
15	0x3e138aaf	0.14408372
16	0x3df4403f	0.119263165
17	0xbe0c5c67	-0.13707124
18	0x3d8e7bbc	0.06957194
19	0xbd8a5f47	-0.06756454
20	0x3bdb1d5d	0.00668685
21	0xbd66f2f5	-0.056384046
22	0x3ddd3842	0.10801746
23	0xbc136a31	-0.008997486
24	0x3d99a110	0.07501423
25	0xbe14548f	-0.14485382
26	0x3d437310	0.047717154
27	0xbd373eb2	-0.044737525
28	0xbd087209	-0.033311877
29	0x3d276001	0.04086304
30	0x3d72cc84	0.059277073
31	0xbd08959d	-0.033345807
32	0xbe0a39bf	-0.13498591
33	0x3e2607aa	0.16213861
34	0xbc99e53b	-0.018786063
35	0x3d4abb77	0.049495187
36	0xbd3f3336	-0.046679698
37	0x3e0b3d27	0.13597547
38	0xbddc1b63	-0.10747411
39	0xbe384074	-0.17993337
40	0x3dd87289	0.10568721
41	0x3da5c119	0.08093471
42	0x3de590bc	0.112092465
43	0xbdb886e5	-0.09010104
44	0x3be5c044	0.0070114452
45	0xbdf01ab9	-0.11723847
46	0x3c9dae47	0.019248141
47	0x3e33eee8	0.17571604
48	0x3ca72280	0.020402193
49	0xbdeac5cb	-0.11463507
50	0xbcba27ca	-0.022724051
51	0x3d830488	0.06397349
52	0x3ddb8aef	0.10719859
53	0xbe1f2aac	-0.15543622
54	0xbd95f478	-0.07322019
55	0xbd837d12	-0.0642034
56	0x3e12fe19	0.14354743
57	0xbbdb0d69	-0.006684948
58	0x3da54a18	0.08070773
59	0x3d6b816e	0.05749648
60	0x3e1ab106	0.15106592
61	0x3c6ba1b9	0.014381819
62	0x3cd1ea25	0.025624344
63	0xbd4acc84	-0.049511448
64	0xbe22da6e	-0.15903637
65	0xbcbc1954	-0.022961296
66	0x3dd36600	0.10322189
67	0x3d927a6f	0.071522586
68	0x3da87c29	0.08226807
69	0x3d51308a	0.05107168
70	0x3d5ca9f0	0.053873003
71	0x3ce2e230	0.027695745
72	0xbc6f1f3f	-0.014594852
73	0xbd89c0cf	-0.067262284
74	0x3cef0fc2	0.029182319
75	0xbc7bd10c	-0.015369665
76	0x3c233f20	0.009963781
77	0x3e28f7f3	0.16500835
78	0xbd542080	-0.051788807
79	0xbe254f4d	-0.16143532
80	0xbdf31a02	-0.11870195
81	0x3dd9092d	0.10597453
82	0xbc987b18	-0.018613383
83	0xbdce3d48	-0.10070282
84	0xbd81cd80	-0.06338024
85	0x3e033ab9	0.1281537
86	0xbd02a99a	-0.031900026
87	0x3e0ab931	0.13547207
88	0x3ded6715	0.11591927
89	0xbcfca775	-0.030841568
90	0x3e0f342e	0.13984749
91	0x3e14f0ed	0.14545031
92	0x3d8b4dbf	0.06801938
93	0xbe059d7c	-0.13048357
94	0xbd970ebf	-0.073758595
95	0xbd87a5f3	-0.06623449
96	0xbe30a84d	-0.17251702
97	0xbdd28bdc	-0.10280582
98	0xbe16b530	-0.14717555
99	0x3e083e91	0.13305117
100	0xbd55e3d1	-0.052219216
101	0xbd453a24	-0.04815115
102	0x3d125adf	0.035731193
103	0x3c49bf6f	0.012313708
104	0xbdb96dcf	-0.090541475
105	0xbd92290a	-0.07136734
106	0xbcbb9345	-0.022897372
107	0x3c95be05	0.018279085
108	0xbd029b6a	-0.031886496
109	0x3dc5c862	0.096573606
110	0xbc0b0b33	-0.008486557
111	0xbdc57106	-0.09640698
112	0xbd91180c	-0.07084665
113	0xbcaeb8c1	-0.021328332
114	0x3df27135	0.11837999
115	0x3e103234	0.14081651
116	0xbe172145	-0.14758785
117	0xbe1613b2	-0.1465595
118	0x3d01e954	0.03171666
119	0x3db50f78	0.08840841
120	0xbd377b45	-0.044795293
121	0x3d4e336c	0.05034201
122	0xbbac0a6d	-0.0052502663
123	0xbd94bb97	-0.072623424
124	0x3df643d7	0.12024658
125	0xbdaa83da	-0.0832593
126	0xbdde3e55	-0.10851733
127	0xbcc816ff	-0.024425028
128	0xbd0d3cb1	-0.034481708
129	0x3dcdeef3	0.100553416
130	0x3e14fabc	0.14548773
131	0x3e0adfca	0.13561931
132	0xbd8217ac	-0.06352171
133	0xbd9ffcdd	-0.07811902
134	0xbd863e71	-0.065548785
135	0xbdc3d6d6	-0.09562461
136	0xbd4bf46f	-0.049793657
137	0x3e1547fb	0.1457824
138	0x3e26f87d	0.16305728
139	0xbd720be0	-0.059093356
140	0x3d6b77d1	0.057487313
141	0x3c2c6423	0.010521921
142	0x3d67a85d	0.056557048
143	0xbe0478ea	-0.1293675
144	0xbdb6bbe0	-0.08922553
145	0xbcd4b9a9	-0.025967436
146	0xbd43bb6d	-0.047786165
147	0xbd6068b1	-0.05478734
148	0x3d1873e0	0.037219882
149	0x3a983070	0.0011611115
150	0xbe29a906	-0.16568384
151	0x3c6c0df0	0.01440762
152	0x3c2f8d6e	0.010714872
153	0x3de25300	0.11050987
154	0xbdc0068e	-0.0937625
155	0xbde1cd12	-0.11025442
156	0x3df9b62d	0.121929504
157	0xbd7c53bc	-0.061603293
158	0x3dac4e83	0.084134124
159	0x3e124084	0.14282423
160	0xbcad47ab	-0.021152338
161	0xbcdbedd8	-0.026846811
162	0xbddcdc85	-0.10784248
163	0x3d801658	0.06254262
164	0x3d94aa9c	0.07259104
165	0xbe091657	-0.13387428
166	0x3dce1930	0.10063398
167	0x3e273a3c	0.16330808
168	0x3e2b01b7	0.16699873
169	0x3d62ae30	0.0553419
170	0x3e25095b	0.1611685
171	0x3d0451ae	0.03230446
172	0xbdc6be27	-0.097042374
173	0xbe0cceaf	-0.13750719
174	0xbe0533ee	-0.13008091
175	0x3da5c9cd	0.08095131
176	0x3d7ab4bf	0.06120753
177	0xbda5f228	-0.08102828
178	0x3ccea0dd	0.02522319
179	0xbd7b3c64	-0.06133689
180	0x3d5885fc	0.052862152
181	0xbe02aa14	-0.12760192
182	0x3c3ce8e0	0.011530131
183	0xbd70e3d3	-0.05881102
184	0xbdcdc24b	-0.10046824
185	0xbdadd422	-0.08487727
186	0x3e1163db	0.14198248
187	0x3cafa8fb	0.02144288
188	0xbe0b5ca8	-0.13609564
189	0x3d6dfba1	0.0581013
190	0xbe1ffeef	-0.15624593
191	0x3e1a1dbe	0.15050408
192	0xbe04e842	-0.12979224
193	0xbd3ec311	-0.04657275
194	0xbe29ff30	-0.16601253
195	0xbd834b9f	-0.06410908
196	0x3dd365ad	0.103221275
197	0x3db3e8a5	0.08784608
198	0xbc34cf7f	-0.011035799
199	0xbde8e3f4	-0.113716036
200	0x3df6355d	0.12021897
201	0x3c0f266a	0.008737186
202	0xbc7af9f9	-0.015318387
203	0x3d9c0820	0.07618737
204	0x3dadc838	0.08485454
205	0xbe0408c5	-0.1289397
206	0xbb8b35bf	-0.0042483504
207	0xbdf8a62d	-0.121410705
208	0xbdb46b32	-0.088095084
209	0xbabd5fab	-0.0014448067
210	0x3b8eca02	0.0043575773
211	0x3d4d52da	0.05012784
212	0xbdedd391	-0.11612619
213	0x3d03124d	0.031999875
214	0x3dc629bd	0.0967593
215	0x3ce5a4a6	0.028032612
216	0x3e12a1ad	0.14319487
217	0x3b4d9751	0.003137071
218	0xbdd6bba5	-0.10485009
219	0xbdc59334	-0.096472174
220	0x3d1e8ed1	0.03871042
221	0xbdf317ce	-0.11869775
222	0xbdf216bb	-0.11820742
223	0x3e2abd61	0.16673805
224	0x3e239e05	0.15978248
225	0x3e00538d	0.12531872
226	0x3ca70d43	0.020392066
227	0x3d200419	0.039066408
228	0xbe129140	-0.14313221
229	0x3c99690e	0.018726852
230	0x3dd150d9	0.102204986
231	0x3e205c30	0.15660167
232	0xbd2b5575	-0.041829545
233	0xbe11c298	-0.14234388
234	0x3ce283d7	0.027650757
235	0x3d465a11	0.048425738
236	0xbd5e15f9	-0.054220174
237	0xbddac005	-0.10681156
238	0xbe0260bc	-0.12732214
239	0x3cb91a7b	0.022595635
240	0x3e319745	0.17342861
241	0x3db7828a	0.08960445
242	0xbdba80f4	-0.09106627
243	0x3e0842ab	0.13306682
244	0x3e174298	0.14771497
245	0x3d35d29f	0.044390317
246	0x3e22faa2	0.15915921
247	0xbe017785	-0.1264325
248	0x3dae9d1e	0.085260615
249	0xbd9bbaa0	-0.07603955
250	0x3e01af08	0.12664425
251	0x3df85e5e	0.12127374
252	0x3dbbf1fc	0.09177014
253	0x3e20c7ea	0.15701261
254	0x3cd679d5	0.02618114
255	0xbd176d62	-0.03696955

bn1.running_var f4 [256]
0	0x3fa2d379	1.2720786
1	0x3fabd814	1.3425317
2	0x3f57b0aa	0.8425394
3	0x3f5885a4	0.8457892
4	0x4029ccd2	2.6531262
5	0x3fc740fa	1.5566704
6	0x3f5ca60b	0.8619086
7	0x3f890810	1.0705585
8	0x3fda19f5	1.7039171
9	0x3fb3e23b	1.4053415
10	0x3f89619b	1.0732912
11	0x400929f2	2.1431851
12	0x3f230789	0.6368337
13	0x3f426c2d	0.75946313
14	0x3f9a8fd1	1.2075139
15	0x3fb1416f	1.3848094
16	0x402c05a3	2.687844
17	0x3f57a89e	0.84241664
18	0x3ff3f270	1.9058361
19	0x3f3aa7aa	0.72912085
20	0x400519f8	2.07971
21	0x3ff17fa4	1.8867078
22	0x3f9997a9	1.1999408
23	0x3ff5ff57	1.9218549
24	0x3fae4834	1.3615785
25	0x3f80df24	1.0068097
26	0x3fc6fd4d	1.5546051
27	0x3fc895e0	1.5670738
28	0x3fa6c2c0	1.3028183
29	0x3fbb919c	1.4653811
30	0x3f421ae9	0.7582231
31	0x3f572318	0.84037924
32	0x3f9b0142	1.2109759
33	0x3fb6d4c3	1.428368
34	0x3f820794	1.0158563
35	0x3f74583e	0.95447147
36	0x3f8c41bc	1.095756
37	0x3fd75e5c	1.6825671
38	0x3f8a6aba	1.081382
39	0x3fdb7599	1.7145263
40	0x3fab2ae4	1.3372464
41	0x3f450f03	0.7697603
42	0x3f48f348	0.7849622
43	0x3fd4400d	1.6582047
44	0x3f1569bd	0.5836447
45	0x3fd19ca4	1.6375928
46	0x3f0a6702	0.5406343
47	0x3fbb3341	1.4625016
48	0x3f82d2f0	1.0220623
49	0x3fa300ad	1.2734581
50	0x3fa25224	1.2681317
51	0x3f70eb31	0.94108874
52	0x3f8682cf	1.050867
53	0x3f9dc3da	1.2325394
54	0x3f88b0f1	1.0678998
55	0x3f38bb0b	0.72160405
56	0x3fb6a21c	1.4268222
57	0x3f4c3b34	0.79777837
58	0x3f175765	0.5911773
59	0x3ee91ab5	0.45528188
60	0x3faceaad	1.3509117
61	0x3fe1fe53	1.7655739
62	0x3f4e3bee	0.80560195
63	0x3f30eca1	0.6911107
64	0x3f319731	0.69371325
65	0x3f1e0263	0.6172239
66	0x3d07179d	0.032981504
67	0x3fb53f9c	1.4160037
68	0x3fe2f01c	1.7729526
69	0x3fc46aa3	1.5345043
70	0x3fb55286	1.4165809
71	0x400876aa	2.1322427
72	0x3f41bd9c	0.75679946
73	0x402fc600	2.74646
74	0x3f9c4a4e	1.2210176
75	0x3ff43b11	1.9080526
76	0x3f83928c	1.0279098
77	0x3f90719b	1.128467
78	0x3f8c1c7f	1.0946196
79	0x3fa063ae	1.253042
80	0x3fc5faa9	1.546712
81	0x3ed3fedc	0.4140538
82	0x3f425d71	0.7592383
83	0x3c53d897	0.012930057
84	0x401b4735	2.4262211
85	0x3f81eb5f	1.0149955
86	0x3fcfcb58	1.623393
87	0x3f9bbbee	1.2166727
88	0x3f53f0ac	0.8278911
89	0x3fb74277	1.4317158
90	0x400259ea	2.036738
91	0x3f866f73	1.0502762
92	0x40096f81	2.1474307
93	0x3f56790e	0.83778465
94	0x3f99bfd6	1.2011669
95	0x3fd2bcdb	1.6463884
96	0x3f152b40	0.5826912
97	0x3f9b338b	1.2125105
98	0x3f957f2c	1.1679435
99	0x3f0b574f	0.544301
100	0x3f2819db	0.6566445
101	0x3f6d772f	0.92759985
102	0x3f545da4	0.82955384
103	0x3f9f672a	1.2453358
104	0x3f8ca7ba	1.0988686
105	0x3f257f14	0.6464703
106	0x3f2f4a77	0.68473
107	0x3f81360e	1.0094621
108	0x3f8eb612	1.1149313
109	0x3f4786db	0.7794015
110	0x3f35d5d3	0.71029395
111	0x3ed049c4	0.4068128
112	0x3ffe3a83	1.9861606
113	0x3f875a2a	1.0574391
114	0x3fa462dc	1.284267
115	0x3f5efcc1	0.8710442
116	0x3eedb920	0.46430302
117	0x40052d09	2.0808737
118	0x3fcc03c4	1.5938649
119	0x4034a29b	2.8224247
120	0x3f7df881	0.9920731
121	0x3edd519b	0.43226323
122	0x3f84e39f	1.0381964
123	0x3f4af02c	0.79272723
124	0x3f38505a	0.71997607
125	0x3f74e5f5	0.95663387
126	0x3fcb1619	1.5866119
127	0x3f5bfe7c	0.8593519
128	0x3f49792c	0.7870052
129	0x3f75e2d8	0.9604926
130	0x3f3a00f4	0.72657704
131	0x3f407c89	0.75190026
132	0x3fc4629e	1.5342596
133	0x3fcb8bbc	1.5902019
134	0x3fb89b0d	1.4422318
135	0x3f3c9211	0.7366038
136	0x3f4de1aa	0.8042246
137	0x3ff80400	1.9376221
138	0x3f71db57	0.9447531
139	0x3fb081eb	1.3789648
140	0x3f664f0e	0.8996438
141	0x3f65c393	0.8975155
142	0x4017275e	2.3617778
143	0x3fc22412	1.5167258
144	0x3f3cc481	0.7373734
145	0x3f8e63d1	1.1124212
146	0x3f17f7b5	0.59362346
147	0x3f46d19b	0.7766358
148	0x3fd7280a	1.6809094
149	0x3fd9348e	1.6969163
150	0x3f93cdc8	1.1547174
151	0x401def50	2.4677315
152	0x3f0988f3	0.5372459
153	0x3f89a321	1.0752908
154	0x3fa1be9a	1.2636292
155	0x3f643b50	0.89153004
156	0x3f9366d8	1.151576
157	0x3f8d5e14	1.1044335
158	0x400dc8cc	2.2153807
159	0x3f6ee3b7	0.93316215
160	0x3fd77201	1.6831666
161	0x3f503688	0.8133321
162	0x3f6a4574	0.9151223
163	0x3f401db6	0.75045335
164	0x3f8c39ab	1.0955099
165	0x3f9c992f	1.2234248
166	0x3f8f36ce	1.11886
167	0x3fb52cdb	1.4154314
168	0x401ad093	2.4189804
169	0x3f32a471	0.6978217
170	0x3f74d2b2	0.95633996
171	0x40385b29	2.880564
172	0x3f07ff5c	0.5312402
173	0x3cbf7860	0.023372829
174	0x3f894182	1.0723116
175	0x3f80aa1f	1.0051917
176	0x3e7664d0	0.24061894
177	0x3fa8f043	1.3198322
178	0x3f9e2749	1.2355739
179	0x3fc530c8	1.5405512
180	0x3fdb8fba	1.7153237
181	0x3ffc5c39	1.9715644
182	0x3fbc0cc0	1.4691391
183	0x3f28b831	0.65906054
184	0x3f4e3046	0.8054241
185	0x3f465c1b	0.7748429
186	0x3f339d16	0.7016157
187	0x3f5935e2	0.84847844
188	0x3f6f4196	0.9345945
189	0x4009fc94	2.1560411
190	0x3f51ce28	0.81955194
191	0x3f0a4654	0.5401356
192	0x3f238545	0.6387523
193	0x3f3eeac1	0.74576956
194	0x3f375159	0.716085
195	0x3fbb29d8	1.4622145
196	0x3fb2f681	1.3981477
197	0x3fd0a048	1.6298914
198	0x40085722	2.1303182
199	0x3fea9379	1.8326255
200	0x3f22f2d4	0.63651776
201	0x3f975f16	1.1825893
202	0x3f5cb018	0.862062
203	0x3f0fd6f5	0.56187373
204	0x3ffc59a6	1.9714859
205	0x3fd0b995	1.6306635
206	0x3ff2f443	1.8980793
207	0x3fe062cf	1.7530154
208	0x3f953309	1.16562
209	0x4002a833	2.041516
210	0x3faf8f03	1.3715519
211	0x3f45eaf3	0.7731163
212	0x3f9127e6	1.1340301
213	0x3e8fd53d	0.28092375
214	0x3fb90ce5	1.445706
215	0x3f870855	1.0549418
216	0x3fa63c85	1.2987219
217	0x406bab43	3.682328
218	0x3fb0ba8a	1.3806927
219	0x4007b4d2	2.1204114
220	0x3f9b303e	1.2124097
221	0x3c93bc44	0.018034108
222	0x3f63319e	0.88747585
223	0x3f5ac471	0.85455996
224	0x3f59df8b	0.85106725
225	0x3f506d9e	0.8141726
226	0x3f3518b1	0.707408
227	0x3f1ff883	0.62488574
228	0x3fbeb44a	1.489877
229	0x3f88e138	1.0693731
230	0x3fef7ab1	1.8709317
231	0x3f2d4a6b	0.6769168
232	0x3f6e3703	0.9305269
233	0x3ebb1a4e	0.36543506
234	0x3f4d2ff2	0.80151284
235	0x3fad65f4	1.3546739
236	0x3fd4a793	1.661364
237	0x4062747f	3.5383604
238	0x3f2d4072	0.6767646
239	0x3f3b1b2f	0.73088354
240	0x3ff9fe40	1.9530716
241	0x3f4fac74	0.8112252
242	0x3f46f333	0.7771484
243	0x400c8bc4	2.1960306
244	0x3f7baa48	0.98306704
245	0x3fefccc8	1.8734369
246	0x3fbdc4f4	1.482573
247	0x3fc7b19f	1.5601081
248	0x3f238aaf	0.6388349
249	0x3f3e5c09	0.74359185
250	0x3f92c3c9	1.1465999
251	0x3f45fdc5	0.77340347
252	0x3f22a778	0.6353679
253	0x3fbf0e4c	1.4926238
254	0x3f85bbdc	1.0447955
255	0x3fc36819	1.5266143

fc2.weight f4 [128, 256]
0	0xbf4d8e96	-0.80295694
1	0xbf5a731d	-0.853319
2	0xbf463bec	-0.77435184
3	0xbf8cc3d1	-1.0997258
4	0xbeef43cc	-0.46731412
5	0x3f13029b	0.5742585
6	0xbf1aa047	-0.60400814
7	0x3f0cc975	0.549949
8	0xbdd13a95	-0.10216252
9	0x3f4dce07	0.803925
10	0xbd203939	-0.03911707
11	0x3f32abf1	0.6979361
12	0xbeb6baa8	-0.35689282
13	0x3e54d1a4	0.20783097
14	0x3d88b245	0.06674627
15	0x3f253e45	0.6454814
16	0x3f6d9dff	0.9281921
17	0xbdbdece5	-0.092737
18	0x3eda9fd3	0.4270006
19	0xbe0cf785	-0.13766296
20	0xbecf846e	-0.40530723
21	0xbe81bcd4	-0.25339377
22	0xbf34728d	-0.7048729
23	0xbe8dca6b	-0.27693495
24	0x3de05602	0.10953905
25	0x3e04a9ac	0.1295535
26	0xbdfa1317	-0.12210672
27	0x3eee9bac	0.46603143
28	0xbe33e991	-0.17569567
29	0x3f4aad4f	0.791707
30	0x3e2342c9	0.15943445
31	0xbe4ee5c9	-0.20204844
32	0x3f2af5b8	0.6678119
33	0xbd50a466	-0.050938033
34	0x3ec7175a	0.38885003
35	0xbeb24982	-0.34821707
36	0x3eb06476	0.34451646
37	0x3e94aa6d	0.29036275
38	0xbf18cf01	-0.5969086
39	0xbef53c8e	-0.47897762
40	0xbd49b200	-0.04924202
41	0xbea9333a	-0.33046895
42	0xbe83100b	-0.25598177
43	0x3f03618e	0.5132073
44	0xbf035695	-0.5130399
45	0x3efff278	0.49989676
46	0x3e05042c	0.12989873
47	0xbf36fa5f	-0.71475786
48	0x3e3159a2	0.17319348
49	0x3dd13121	0.10214449
50	0x3d25f1c9	0.040513787
51	0x3f43188e	0.7620934
52	0x3d892e4f	0.06698286
53	0x3f53c696	0.82724893
54	0xbe6aa01f	-0.22912644
55	0xbefe4a34	-0.49665987
56	0x3e8ff463	0.2811614
57	0xbd1c9472	-0.038227506
58	0x3ea0fafe	0.31441492
59	0xbf84f46b	-1.038709
60	0x3e8c396a	0.27387553
61	0xbe70ef72	-0.23528841
62	0xbea97e8d	-0.33104363
63	0x3ee3aaf1	0.44466355
64	0xbe3a7415	-0.18208344
65	0x3f095fda	0.5366188
66	0xbd655b0d	-0.055995036
67	0xbf26252b	-0.64900464
68	0x3eef9814	0.46795714
69	0x3ebdd49c	0.3707627
70	0x3f0ba560	0.5454922
71	0xbd98ead3	-0.07466664
72	0xbd9d834a	-0.07691057
73	0x3ea323a3	0.31863126
74	0xbedb085e	-0.4277982
75	0x3ee60e78	0.44932914
76	0x3f28349f	0.65705293
77	0x3ca5a9b0	0.020222515
78	0xbeb55a95	-0.3542067
79	0x3ed35009	0.41272
80	0x3e8917b7	0.26775905
81	0xbe0ab858	-0.13546884
82	0xbdd6ecc2	-0.10494377
83	0x3db2e50d	0.08735094
84	0x3f2f2d38	0.68428373
85	0xbe34c3c6	-0.17652807
86	0xbd7cd1bc	-0.061723456
87	0x3ec14f39	0.37755755
88	0xbead1645	-0.33806053
89	0xbdd507e0	-0.10401893
90	0x3eb3615a	0.3503521
91	0x3e119e8b	0.14220636
92	0x3ed16714	0.40898955
93	0x3f086c68	0.53290415
94	0x3e16c2d8	0.14722764
95	0xbe836301	-0.2566147
96	0x3f433425	0.7625144
97	0x3e831de7	0.2560875
98	0xbc09565d	-0.008382407
99	0xbe01ddf0	-0.12682319
100	0xbba4214b	-0.0050088516
101	0x3e57987d	0.21054263
102	0x3d19a9cf	0.037515458
103	0x3c8b8020	0.017028868
104	0x3d140b9c	0.036143884
105	0x3d218ee7	0.039442923
106	0x3e289adb	0.16465323
107	0x3ea2b223	0.31776533
108	0x3e036cea	0.12834516
109	0xbe52f907	-0.20602809
110	0x3d27053e	0.040776484
111	0xbec1a8d9	-0.37824133
112	0x3eb06dcb	0.34458765
113	0x3eea2c11	0.45736745
114	0x3f00cc02	0.5031129
115	0x3e9105c7	0.2832472
116	0x3e7fb101	0.24969865
117	0xbf16c0ff	-0.5888824
118	0x3db70df9	0.08938212
119	0x3da06791	0.07832254
120	0xbda56e93	-0.08077731
121	0x3e1e3046	0.15448102
122	0x3e4c4f50	0.1995213
123	0x3e26b0b5	0.16278346
124	0xbead03d2	-0.33791977
125	0xbda9c6f7	-0.08289903
126	0xbe84b9c7	-0.25922987
127	0x3ed7b6af	0.42131564
128	0x3e09bc19	0.1345066
129	0xbe8becbc	-0.27329051
130	0x3ebbe922	0.36701304
131	0xbe7c1793	-0.24618368
132	0x3f2a2263	0.6645872
133	0x3d8c28cb	0.06843718
134	0xbe8febd2	-0.28109604
135	0x3e193fd3	0.14965753
136	0x3e4e0dee	0.20122501
137	0x3e850655	0.25981393
138	0x3e64a306	0.22327814
139	0xbe51b728	-0.20480025
140	0xbc69d5ea	-0.0142721925
141	0x3eb55bc0	0.35421562
142	0xbe53bb4f	-0.20676921
143	0xbe784d35	-0.24248202
144	0xbf65ef2c	-0.8981807
145	0x3f0423c0	0.5161705
146	0xbe343182	-0.1759701
147	0x3ec5484f	0.3853173
148	0x3d1fdbe6	0.03902807
149	0xbdd8d202	-0.10586931
150	0xbf259571	-0.64681154
151	0xbd9a1e36	-0.075252935
152	0x3d5725e9	0.05252639
153	0xbdb891cb	-0.09012183
154	0xbde5d8ed	-0.11223016
155	0xbe4e287b	-0.2013263
156	0x3d6fc020	0.058532834
157	0x3e8f641e	0.2800607
158	0xbd4ce14b	-0.050019544
159	0x3ec17f8e	0.3779263
160	0xbf131a91	-0.5746241
161	0xbe326396	-0.17420802
162	0x3ef444b0	0.47708654
163	0xbddf70e9	-0.10910208
164	0xbe9c34c5	-0.3050901
165	0xbf07b751	-0.53014094
166	0x3eacbd9e	0.33738416
167	0x3edf9f5c	0.4367627
168	0xbefa507c	-0.4888953
169	0xbed3cf71	-0.41369203
170	0x3de3ae92	0.11117281
171	0x3eaf8870	0.3428378
172	0xbdfdce91	-0.12392915
173	0x3c47585d	0.012167064
174	0x3b7f3248	0.0038939882
175	0x3dfa0e25	0.12209729
176	0xbdc41d05	-0.095758475
177	0xbda45cd1	-0.08025516
178	0xbe80d900	-0.25165558
179	0x3f1a504f	0.6027879
180	0xbf1c540e	-0.6106576
181	0x3d1e766e	0.038687162
182	0xbecb69b0	-0.3972907
183	0x3d94ac4a	0.07259424
184	0xbd80ebae	-0.06294952
185	0xbdad9d4b	-0.08477267
186	0x3e3e1823	0.18563895
187	0x3e9e689c	0.30939186
188	0x3f081e90	0.53171635
189	0xbeb2d021	-0.34924415
190	0xbe2be24b	-0.16785543
191	0xbe3b1903	-0.1827126
192	0x3ebbdd58	0.3669231
193	0x3e0f5cbf	0.14000224
194	0xbc8e97f9	-0.01740645
195	0x3dc57eee	0.096433505
196	0x3e43cb20	0.19120455
197	0x3e9e8217	0.30958626
198	0xbe3873f1	-0.18012978
199	0xbe9faf9b	-0.31188664
200	0xbef8cfcb	-0.48596033
201	0x3e9f94d2	0.31168228
202	0xbcf0015c	-0.029297523
203	0xbe648ee2	-0.2232013
204	0xbe91eef6	-0.28502625
205	0x3d1c3857	0.038139667
206	0x3f087d51	0.5331622
207	0xbd8a79a5	-0.06761483
208	0xbd56fa7c	-0.052484974
209	0xbc277d7d	-0.01022279
210	0xbf42c153	-0.7607624
211	0xbeaa1f6e	-0.33227104
212	0xbf5e23e7	-0.8677353
213	0xbd911d5f	-0.0708568
214	0x3e47d297	0.19513927
215	0xbd89e723	-0.06733539
216	0x3de54386	0.1119452
217	0x3f48e497	0.784738
218	0x3f12e05f	0.57373613
219	0x3dc836ce	0.09776078
220	0xbedb718f	-0.42860076
221	0xbd9c49b3	-0.076312445
222	0x3e605b82	0.21909907
223	0x3d579504	0.052632347
224	0xbd8f0d9c	-0.06985018
225	0xbdaed7e9	-0.08537275
226	0xbdfa71b8	-0.122287214
227	0x3ef18c66	0.47177428
228	0xbf499573	-0.78743666
229	0xbebf5219	-0.37367323
230	0xbeafed73	-0.34360847
231	0x3de749a9	0.112933464
232	0xbe64840b	-0.22315995
233	0xbd81f30c	-0.06345186
234	0xbe9df55f	-0.30851266
235	0xbdfe90ab	-0.12429937
236	0x3e881f7c	0.2658652
237	0x3e4466f6	0.19179901
238	0x3e239ba6	0.15977344
239	0xbed173bf	-0.4090862
240	0xbe1730dc	-0.14764732
241	0xbed6a7cb	-0.4192489
242	0xbee31f2e	-0.44359726
243	0x3e086608	0.13320172
244	0x3ebd1602	0.36930853
245	0xbdc1fa68	-0.09471589
246	0xbed5856e	-0.4170336
247	0xbecb90b6	-0.39758843
248	0x3e6a8606	0.22902688
249	0x3f14bf2d	0.5810421
250	0x3f1df753	0.6170551
251	0x3e8314df	0.2560186
252	0x3ee2801d	0.44238368
253	0xbe54daad	-0.20786543
254	0x3e2adaac	0.16684979
255	0xbeade54a	-0.33963996
